<?xml version="1.0" ?>
<net name="face-detection-retail-0005" version="10">
	<layers>
		<layer id="0" name="input.1" type="Parameter" version="opset1">
			<data element_type="f16" shape="1,3,300,300"/>
			<output>
				<port id="0" precision="FP16">
					<dim>1</dim>
					<dim>3</dim>
					<dim>300</dim>
					<dim>300</dim>
				</port>
			</output>
		</layer>
		<layer id="1" name="19992003_const" type="Const" version="opset1">
			<data element_type="f16" offset="0" shape="" size="2"/>
			<output>
				<port id="1" precision="FP16"/>
			</output>
		</layer>
		<layer id="2" name="20002004_const" type="Const" version="opset1">
			<data element_type="f16" offset="2" shape="" size="2"/>
			<output>
				<port id="1" precision="FP16"/>
			</output>
		</layer>
		<layer id="3" name="20012005_const" type="Const" version="opset1">
			<data element_type="f16" offset="0" shape="" size="2"/>
			<output>
				<port id="1" precision="FP16"/>
			</output>
		</layer>
		<layer id="4" name="20022006_const" type="Const" version="opset1">
			<data element_type="f16" offset="2" shape="" size="2"/>
			<output>
				<port id="1" precision="FP16"/>
			</output>
		</layer>
		<layer id="5" name="Mul_/fq_input_0" type="FakeQuantize" version="opset1">
			<data levels="256"/>
			<input>
				<port id="0">
					<dim>1</dim>
					<dim>3</dim>
					<dim>300</dim>
					<dim>300</dim>
				</port>
				<port id="1"/>
				<port id="2"/>
				<port id="3"/>
				<port id="4"/>
			</input>
			<output>
				<port id="5" precision="FP16">
					<dim>1</dim>
					<dim>3</dim>
					<dim>300</dim>
					<dim>300</dim>
				</port>
			</output>
		</layer>
		<layer id="6" name="Mul_/fq_input_1/Convert_to_float/Cast_05397_const" type="Const" version="opset1">
			<data element_type="u8" offset="4" shape="1,1,1,1" size="1"/>
			<output>
				<port id="1" precision="U8">
					<dim>1</dim>
					<dim>1</dim>
					<dim>1</dim>
					<dim>1</dim>
				</port>
			</output>
		</layer>
		<layer id="7" name="Mul_/fq_input_1/Convert_to_float" type="Convert" version="opset1">
			<data destination_type="f16"/>
			<input>
				<port id="0">
					<dim>1</dim>
					<dim>1</dim>
					<dim>1</dim>
					<dim>1</dim>
				</port>
			</input>
			<output>
				<port id="1" precision="FP16">
					<dim>1</dim>
					<dim>1</dim>
					<dim>1</dim>
					<dim>1</dim>
				</port>
			</output>
		</layer>
		<layer id="8" name="Mul_/fq_input_1/Copy/out_low4459_const" type="Const" version="opset1">
			<data element_type="f16" offset="5" shape="1" size="2"/>
			<output>
				<port id="1" precision="FP16">
					<dim>1</dim>
				</port>
			</output>
		</layer>
		<layer id="9" name="Mul_/fq_input_1/Copy/out_high4460_const" type="Const" version="opset1">
			<data element_type="f16" offset="7" shape="1" size="2"/>
			<output>
				<port id="1" precision="FP16">
					<dim>1</dim>
				</port>
			</output>
		</layer>
		<layer id="10" name="20112015_const" type="Const" version="opset1">
			<data element_type="f16" offset="9" shape="1,1,1,1" size="2"/>
			<output>
				<port id="1" precision="FP16">
					<dim>1</dim>
					<dim>1</dim>
					<dim>1</dim>
					<dim>1</dim>
				</port>
			</output>
		</layer>
		<layer id="11" name="20122016_const" type="Const" version="opset1">
			<data element_type="f16" offset="11" shape="1,1,1,1" size="2"/>
			<output>
				<port id="1" precision="FP16">
					<dim>1</dim>
					<dim>1</dim>
					<dim>1</dim>
					<dim>1</dim>
				</port>
			</output>
		</layer>
		<layer id="12" name="Mul_/fq_input_1" type="FakeQuantize" version="opset1">
			<data levels="255"/>
			<input>
				<port id="0">
					<dim>1</dim>
					<dim>1</dim>
					<dim>1</dim>
					<dim>1</dim>
				</port>
				<port id="1">
					<dim>1</dim>
				</port>
				<port id="2">
					<dim>1</dim>
				</port>
				<port id="3">
					<dim>1</dim>
					<dim>1</dim>
					<dim>1</dim>
					<dim>1</dim>
				</port>
				<port id="4">
					<dim>1</dim>
					<dim>1</dim>
					<dim>1</dim>
					<dim>1</dim>
				</port>
			</input>
			<output>
				<port id="5" precision="FP16">
					<dim>1</dim>
					<dim>1</dim>
					<dim>1</dim>
					<dim>1</dim>
				</port>
			</output>
		</layer>
		<layer id="13" name="Mul_" type="Multiply" version="opset1">
			<input>
				<port id="0">
					<dim>1</dim>
					<dim>3</dim>
					<dim>300</dim>
					<dim>300</dim>
				</port>
				<port id="1">
					<dim>1</dim>
					<dim>1</dim>
					<dim>1</dim>
					<dim>1</dim>
				</port>
			</input>
			<output>
				<port id="2" precision="FP16">
					<dim>1</dim>
					<dim>3</dim>
					<dim>300</dim>
					<dim>300</dim>
				</port>
			</output>
		</layer>
		<layer id="14" name="14291433_const" type="Const" version="opset1">
			<data element_type="f16" offset="13" shape="" size="2"/>
			<output>
				<port id="1" precision="FP16"/>
			</output>
		</layer>
		<layer id="15" name="14301434_const" type="Const" version="opset1">
			<data element_type="f16" offset="15" shape="" size="2"/>
			<output>
				<port id="1" precision="FP16"/>
			</output>
		</layer>
		<layer id="16" name="14311435_const" type="Const" version="opset1">
			<data element_type="f16" offset="13" shape="" size="2"/>
			<output>
				<port id="1" precision="FP16"/>
			</output>
		</layer>
		<layer id="17" name="14321436_const" type="Const" version="opset1">
			<data element_type="f16" offset="15" shape="" size="2"/>
			<output>
				<port id="1" precision="FP16"/>
			</output>
		</layer>
		<layer id="18" name="331/mean/Fused_Mul_/fq_input_0" type="FakeQuantize" version="opset1">
			<data levels="256"/>
			<input>
				<port id="0">
					<dim>1</dim>
					<dim>3</dim>
					<dim>300</dim>
					<dim>300</dim>
				</port>
				<port id="1"/>
				<port id="2"/>
				<port id="3"/>
				<port id="4"/>
			</input>
			<output>
				<port id="5" precision="FP16">
					<dim>1</dim>
					<dim>3</dim>
					<dim>300</dim>
					<dim>300</dim>
				</port>
			</output>
		</layer>
		<layer id="19" name="input.1/reverse_input_channels14529/Concat14548_const309_const" type="Const" version="opset1">
			<data element_type="f16" offset="17" shape="1,3,1,1" size="6"/>
			<output>
				<port id="1" precision="FP16">
					<dim>1</dim>
					<dim>3</dim>
					<dim>1</dim>
					<dim>1</dim>
				</port>
			</output>
		</layer>
		<layer id="20" name="331/mean/Fused_Mul_" type="Multiply" version="opset1">
			<input>
				<port id="0">
					<dim>1</dim>
					<dim>3</dim>
					<dim>300</dim>
					<dim>300</dim>
				</port>
				<port id="1">
					<dim>1</dim>
					<dim>3</dim>
					<dim>1</dim>
					<dim>1</dim>
				</port>
			</input>
			<output>
				<port id="2" precision="FP16">
					<dim>1</dim>
					<dim>3</dim>
					<dim>300</dim>
					<dim>300</dim>
				</port>
			</output>
		</layer>
		<layer id="21" name="input.1/reverse_input_channels14531/Concat14556_const311_const" type="Const" version="opset1">
			<data element_type="f16" offset="23" shape="1,3,1,1" size="6"/>
			<output>
				<port id="1" precision="FP16">
					<dim>1</dim>
					<dim>3</dim>
					<dim>1</dim>
					<dim>1</dim>
				</port>
			</output>
		</layer>
		<layer id="22" name="331/variance/Fused_Add_" type="Add" version="opset1">
			<input>
				<port id="0">
					<dim>1</dim>
					<dim>3</dim>
					<dim>300</dim>
					<dim>300</dim>
				</port>
				<port id="1">
					<dim>1</dim>
					<dim>3</dim>
					<dim>1</dim>
					<dim>1</dim>
				</port>
			</input>
			<output>
				<port id="2" precision="FP16">
					<dim>1</dim>
					<dim>3</dim>
					<dim>300</dim>
					<dim>300</dim>
				</port>
			</output>
		</layer>
		<layer id="23" name="22392243_const" type="Const" version="opset1">
			<data element_type="f16" offset="29" shape="" size="2"/>
			<output>
				<port id="1" precision="FP16"/>
			</output>
		</layer>
		<layer id="24" name="22402244_const" type="Const" version="opset1">
			<data element_type="f16" offset="31" shape="" size="2"/>
			<output>
				<port id="1" precision="FP16"/>
			</output>
		</layer>
		<layer id="25" name="22412245_const" type="Const" version="opset1">
			<data element_type="f16" offset="29" shape="" size="2"/>
			<output>
				<port id="1" precision="FP16"/>
			</output>
		</layer>
		<layer id="26" name="22422246_const" type="Const" version="opset1">
			<data element_type="f16" offset="31" shape="" size="2"/>
			<output>
				<port id="1" precision="FP16"/>
			</output>
		</layer>
		<layer id="27" name="332/fq_input_0" type="FakeQuantize" version="opset1">
			<data levels="256"/>
			<input>
				<port id="0">
					<dim>1</dim>
					<dim>3</dim>
					<dim>300</dim>
					<dim>300</dim>
				</port>
				<port id="1"/>
				<port id="2"/>
				<port id="3"/>
				<port id="4"/>
			</input>
			<output>
				<port id="5" precision="FP16">
					<dim>1</dim>
					<dim>3</dim>
					<dim>300</dim>
					<dim>300</dim>
				</port>
			</output>
		</layer>
		<layer id="28" name="332/fq_weights_1/Convert_to_float/Cast_05367_const" type="Const" version="opset1">
			<data element_type="u8" offset="33" shape="24,3,3,3" size="648"/>
			<output>
				<port id="1" precision="U8">
					<dim>24</dim>
					<dim>3</dim>
					<dim>3</dim>
					<dim>3</dim>
				</port>
			</output>
		</layer>
		<layer id="29" name="332/fq_weights_1/Convert_to_float" type="Convert" version="opset1">
			<data destination_type="f16"/>
			<input>
				<port id="0">
					<dim>24</dim>
					<dim>3</dim>
					<dim>3</dim>
					<dim>3</dim>
				</port>
			</input>
			<output>
				<port id="1" precision="FP16">
					<dim>24</dim>
					<dim>3</dim>
					<dim>3</dim>
					<dim>3</dim>
				</port>
			</output>
		</layer>
		<layer id="30" name="332/fq_weights_1/Copy/out_low4443_const" type="Const" version="opset1">
			<data element_type="f16" offset="681" shape="1" size="2"/>
			<output>
				<port id="1" precision="FP16">
					<dim>1</dim>
				</port>
			</output>
		</layer>
		<layer id="31" name="332/fq_weights_1/Copy/out_high4444_const" type="Const" version="opset1">
			<data element_type="f16" offset="7" shape="1" size="2"/>
			<output>
				<port id="1" precision="FP16">
					<dim>1</dim>
				</port>
			</output>
		</layer>
		<layer id="32" name="22512255_const" type="Const" version="opset1">
			<data element_type="f16" offset="683" shape="24,1,1,1" size="48"/>
			<output>
				<port id="1" precision="FP16">
					<dim>24</dim>
					<dim>1</dim>
					<dim>1</dim>
					<dim>1</dim>
				</port>
			</output>
		</layer>
		<layer id="33" name="22522256_const" type="Const" version="opset1">
			<data element_type="f16" offset="731" shape="24,1,1,1" size="48"/>
			<output>
				<port id="1" precision="FP16">
					<dim>24</dim>
					<dim>1</dim>
					<dim>1</dim>
					<dim>1</dim>
				</port>
			</output>
		</layer>
		<layer id="34" name="332/fq_weights_1" type="FakeQuantize" version="opset1">
			<data levels="255"/>
			<input>
				<port id="0">
					<dim>24</dim>
					<dim>3</dim>
					<dim>3</dim>
					<dim>3</dim>
				</port>
				<port id="1">
					<dim>1</dim>
				</port>
				<port id="2">
					<dim>1</dim>
				</port>
				<port id="3">
					<dim>24</dim>
					<dim>1</dim>
					<dim>1</dim>
					<dim>1</dim>
				</port>
				<port id="4">
					<dim>24</dim>
					<dim>1</dim>
					<dim>1</dim>
					<dim>1</dim>
				</port>
			</input>
			<output>
				<port id="5" precision="FP16">
					<dim>24</dim>
					<dim>3</dim>
					<dim>3</dim>
					<dim>3</dim>
				</port>
			</output>
		</layer>
		<layer id="35" name="332" type="Convolution" version="opset1">
			<data dilations="1,1" output_padding="0,0" pads_begin="1,1" pads_end="1,1" strides="2,2"/>
			<input>
				<port id="0">
					<dim>1</dim>
					<dim>3</dim>
					<dim>300</dim>
					<dim>300</dim>
				</port>
				<port id="1">
					<dim>24</dim>
					<dim>3</dim>
					<dim>3</dim>
					<dim>3</dim>
				</port>
			</input>
			<output>
				<port id="2" precision="FP16">
					<dim>1</dim>
					<dim>24</dim>
					<dim>150</dim>
					<dim>150</dim>
				</port>
			</output>
		</layer>
		<layer id="36" name="data_add_96709675/copy_const315_const" type="Const" version="opset1">
			<data element_type="f16" offset="779" shape="1,24,1,1" size="48"/>
			<output>
				<port id="1" precision="FP16">
					<dim>1</dim>
					<dim>24</dim>
					<dim>1</dim>
					<dim>1</dim>
				</port>
			</output>
		</layer>
		<layer id="37" name="333/variance/Fused_Add_" type="Add" version="opset1">
			<input>
				<port id="0">
					<dim>1</dim>
					<dim>24</dim>
					<dim>150</dim>
					<dim>150</dim>
				</port>
				<port id="1">
					<dim>1</dim>
					<dim>24</dim>
					<dim>1</dim>
					<dim>1</dim>
				</port>
			</input>
			<output>
				<port id="2" precision="FP16">
					<dim>1</dim>
					<dim>24</dim>
					<dim>150</dim>
					<dim>150</dim>
				</port>
			</output>
		</layer>
		<layer id="38" name="334" type="ReLU" version="opset1">
			<input>
				<port id="0">
					<dim>1</dim>
					<dim>24</dim>
					<dim>150</dim>
					<dim>150</dim>
				</port>
			</input>
			<output>
				<port id="1" precision="FP16">
					<dim>1</dim>
					<dim>24</dim>
					<dim>150</dim>
					<dim>150</dim>
				</port>
			</output>
		</layer>
		<layer id="39" name="21792183_const" type="Const" version="opset1">
			<data element_type="f16" offset="827" shape="1,24,1,1" size="48"/>
			<output>
				<port id="1" precision="FP16">
					<dim>1</dim>
					<dim>24</dim>
					<dim>1</dim>
					<dim>1</dim>
				</port>
			</output>
		</layer>
		<layer id="40" name="21802184_const" type="Const" version="opset1">
			<data element_type="f16" offset="875" shape="1,24,1,1" size="48"/>
			<output>
				<port id="1" precision="FP16">
					<dim>1</dim>
					<dim>24</dim>
					<dim>1</dim>
					<dim>1</dim>
				</port>
			</output>
		</layer>
		<layer id="41" name="21812185_const" type="Const" version="opset1">
			<data element_type="f16" offset="827" shape="1,24,1,1" size="48"/>
			<output>
				<port id="1" precision="FP16">
					<dim>1</dim>
					<dim>24</dim>
					<dim>1</dim>
					<dim>1</dim>
				</port>
			</output>
		</layer>
		<layer id="42" name="21822186_const" type="Const" version="opset1">
			<data element_type="f16" offset="875" shape="1,24,1,1" size="48"/>
			<output>
				<port id="1" precision="FP16">
					<dim>1</dim>
					<dim>24</dim>
					<dim>1</dim>
					<dim>1</dim>
				</port>
			</output>
		</layer>
		<layer id="43" name="335/fq_input_0" type="FakeQuantize" version="opset1">
			<data levels="256"/>
			<input>
				<port id="0">
					<dim>1</dim>
					<dim>24</dim>
					<dim>150</dim>
					<dim>150</dim>
				</port>
				<port id="1">
					<dim>1</dim>
					<dim>24</dim>
					<dim>1</dim>
					<dim>1</dim>
				</port>
				<port id="2">
					<dim>1</dim>
					<dim>24</dim>
					<dim>1</dim>
					<dim>1</dim>
				</port>
				<port id="3">
					<dim>1</dim>
					<dim>24</dim>
					<dim>1</dim>
					<dim>1</dim>
				</port>
				<port id="4">
					<dim>1</dim>
					<dim>24</dim>
					<dim>1</dim>
					<dim>1</dim>
				</port>
			</input>
			<output>
				<port id="5" precision="FP16">
					<dim>1</dim>
					<dim>24</dim>
					<dim>150</dim>
					<dim>150</dim>
				</port>
			</output>
		</layer>
		<layer id="44" name="335/fq_weights_1/Convert_to_float/Cast_05363_const" type="Const" version="opset1">
			<data element_type="u8" offset="923" shape="24,1,3,3" size="216"/>
			<output>
				<port id="1" precision="U8">
					<dim>24</dim>
					<dim>1</dim>
					<dim>3</dim>
					<dim>3</dim>
				</port>
			</output>
		</layer>
		<layer id="45" name="335/fq_weights_1/Convert_to_float" type="Convert" version="opset1">
			<data destination_type="f16"/>
			<input>
				<port id="0">
					<dim>24</dim>
					<dim>1</dim>
					<dim>3</dim>
					<dim>3</dim>
				</port>
			</input>
			<output>
				<port id="1" precision="FP16">
					<dim>24</dim>
					<dim>1</dim>
					<dim>3</dim>
					<dim>3</dim>
				</port>
			</output>
		</layer>
		<layer id="46" name="335/fq_weights_1/Copy/out_low4547_const" type="Const" version="opset1">
			<data element_type="f16" offset="681" shape="1" size="2"/>
			<output>
				<port id="1" precision="FP16">
					<dim>1</dim>
				</port>
			</output>
		</layer>
		<layer id="47" name="335/fq_weights_1/Copy/out_high4548_const" type="Const" version="opset1">
			<data element_type="f16" offset="7" shape="1" size="2"/>
			<output>
				<port id="1" precision="FP16">
					<dim>1</dim>
				</port>
			</output>
		</layer>
		<layer id="48" name="21912195_const" type="Const" version="opset1">
			<data element_type="f16" offset="1139" shape="24,1,1,1" size="48"/>
			<output>
				<port id="1" precision="FP16">
					<dim>24</dim>
					<dim>1</dim>
					<dim>1</dim>
					<dim>1</dim>
				</port>
			</output>
		</layer>
		<layer id="49" name="21922196_const" type="Const" version="opset1">
			<data element_type="f16" offset="1187" shape="24,1,1,1" size="48"/>
			<output>
				<port id="1" precision="FP16">
					<dim>24</dim>
					<dim>1</dim>
					<dim>1</dim>
					<dim>1</dim>
				</port>
			</output>
		</layer>
		<layer id="50" name="335/fq_weights_1" type="FakeQuantize" version="opset1">
			<data levels="255"/>
			<input>
				<port id="0">
					<dim>24</dim>
					<dim>1</dim>
					<dim>3</dim>
					<dim>3</dim>
				</port>
				<port id="1">
					<dim>1</dim>
				</port>
				<port id="2">
					<dim>1</dim>
				</port>
				<port id="3">
					<dim>24</dim>
					<dim>1</dim>
					<dim>1</dim>
					<dim>1</dim>
				</port>
				<port id="4">
					<dim>24</dim>
					<dim>1</dim>
					<dim>1</dim>
					<dim>1</dim>
				</port>
			</input>
			<output>
				<port id="5" precision="FP16">
					<dim>24</dim>
					<dim>1</dim>
					<dim>3</dim>
					<dim>3</dim>
				</port>
			</output>
		</layer>
		<layer id="51" name="6124/value6126_const" type="Const" version="opset1">
			<data element_type="i64" offset="1235" shape="5" size="40"/>
			<output>
				<port id="1" precision="I64">
					<dim>5</dim>
				</port>
			</output>
		</layer>
		<layer id="52" name="6124" type="Reshape" version="opset1">
			<data special_zero="True"/>
			<input>
				<port id="0">
					<dim>24</dim>
					<dim>1</dim>
					<dim>3</dim>
					<dim>3</dim>
				</port>
				<port id="1">
					<dim>5</dim>
				</port>
			</input>
			<output>
				<port id="2" precision="FP16">
					<dim>24</dim>
					<dim>1</dim>
					<dim>1</dim>
					<dim>3</dim>
					<dim>3</dim>
				</port>
			</output>
		</layer>
		<layer id="53" name="335" type="GroupConvolution" version="opset1">
			<data dilations="1,1" output_padding="0,0" pads_begin="1,1" pads_end="1,1" strides="1,1"/>
			<input>
				<port id="0">
					<dim>1</dim>
					<dim>24</dim>
					<dim>150</dim>
					<dim>150</dim>
				</port>
				<port id="1">
					<dim>24</dim>
					<dim>1</dim>
					<dim>1</dim>
					<dim>3</dim>
					<dim>3</dim>
				</port>
			</input>
			<output>
				<port id="2" precision="FP16">
					<dim>1</dim>
					<dim>24</dim>
					<dim>150</dim>
					<dim>150</dim>
				</port>
			</output>
		</layer>
		<layer id="54" name="data_add_96789683/copy_const320_const" type="Const" version="opset1">
			<data element_type="f16" offset="1275" shape="1,24,1,1" size="48"/>
			<output>
				<port id="1" precision="FP16">
					<dim>1</dim>
					<dim>24</dim>
					<dim>1</dim>
					<dim>1</dim>
				</port>
			</output>
		</layer>
		<layer id="55" name="336/variance/Fused_Add_" type="Add" version="opset1">
			<input>
				<port id="0">
					<dim>1</dim>
					<dim>24</dim>
					<dim>150</dim>
					<dim>150</dim>
				</port>
				<port id="1">
					<dim>1</dim>
					<dim>24</dim>
					<dim>1</dim>
					<dim>1</dim>
				</port>
			</input>
			<output>
				<port id="2" precision="FP16">
					<dim>1</dim>
					<dim>24</dim>
					<dim>150</dim>
					<dim>150</dim>
				</port>
			</output>
		</layer>
		<layer id="56" name="337" type="ReLU" version="opset1">
			<input>
				<port id="0">
					<dim>1</dim>
					<dim>24</dim>
					<dim>150</dim>
					<dim>150</dim>
				</port>
			</input>
			<output>
				<port id="1" precision="FP16">
					<dim>1</dim>
					<dim>24</dim>
					<dim>150</dim>
					<dim>150</dim>
				</port>
			</output>
		</layer>
		<layer id="57" name="10491053_const" type="Const" version="opset1">
			<data element_type="f16" offset="1323" shape="" size="2"/>
			<output>
				<port id="1" precision="FP16"/>
			</output>
		</layer>
		<layer id="58" name="10501054_const" type="Const" version="opset1">
			<data element_type="f16" offset="1325" shape="" size="2"/>
			<output>
				<port id="1" precision="FP16"/>
			</output>
		</layer>
		<layer id="59" name="10511055_const" type="Const" version="opset1">
			<data element_type="f16" offset="1323" shape="" size="2"/>
			<output>
				<port id="1" precision="FP16"/>
			</output>
		</layer>
		<layer id="60" name="10521056_const" type="Const" version="opset1">
			<data element_type="f16" offset="1325" shape="" size="2"/>
			<output>
				<port id="1" precision="FP16"/>
			</output>
		</layer>
		<layer id="61" name="338/fq_input_0" type="FakeQuantize" version="opset1">
			<data levels="256"/>
			<input>
				<port id="0">
					<dim>1</dim>
					<dim>24</dim>
					<dim>150</dim>
					<dim>150</dim>
				</port>
				<port id="1"/>
				<port id="2"/>
				<port id="3"/>
				<port id="4"/>
			</input>
			<output>
				<port id="5" precision="FP16">
					<dim>1</dim>
					<dim>24</dim>
					<dim>150</dim>
					<dim>150</dim>
				</port>
			</output>
		</layer>
		<layer id="62" name="338/fq_weights_1/Convert_to_float/Cast_05435_const" type="Const" version="opset1">
			<data element_type="u8" offset="1327" shape="12,24,1,1" size="288"/>
			<output>
				<port id="1" precision="U8">
					<dim>12</dim>
					<dim>24</dim>
					<dim>1</dim>
					<dim>1</dim>
				</port>
			</output>
		</layer>
		<layer id="63" name="338/fq_weights_1/Convert_to_float" type="Convert" version="opset1">
			<data destination_type="f16"/>
			<input>
				<port id="0">
					<dim>12</dim>
					<dim>24</dim>
					<dim>1</dim>
					<dim>1</dim>
				</port>
			</input>
			<output>
				<port id="1" precision="FP16">
					<dim>12</dim>
					<dim>24</dim>
					<dim>1</dim>
					<dim>1</dim>
				</port>
			</output>
		</layer>
		<layer id="64" name="338/fq_weights_1/Copy/out_low4643_const" type="Const" version="opset1">
			<data element_type="f16" offset="1615" shape="1" size="2"/>
			<output>
				<port id="1" precision="FP16">
					<dim>1</dim>
				</port>
			</output>
		</layer>
		<layer id="65" name="338/fq_weights_1/Copy/out_high4644_const" type="Const" version="opset1">
			<data element_type="f16" offset="7" shape="1" size="2"/>
			<output>
				<port id="1" precision="FP16">
					<dim>1</dim>
				</port>
			</output>
		</layer>
		<layer id="66" name="10611065_const" type="Const" version="opset1">
			<data element_type="f16" offset="1617" shape="12,1,1,1" size="24"/>
			<output>
				<port id="1" precision="FP16">
					<dim>12</dim>
					<dim>1</dim>
					<dim>1</dim>
					<dim>1</dim>
				</port>
			</output>
		</layer>
		<layer id="67" name="10621066_const" type="Const" version="opset1">
			<data element_type="f16" offset="1641" shape="12,1,1,1" size="24"/>
			<output>
				<port id="1" precision="FP16">
					<dim>12</dim>
					<dim>1</dim>
					<dim>1</dim>
					<dim>1</dim>
				</port>
			</output>
		</layer>
		<layer id="68" name="338/fq_weights_1" type="FakeQuantize" version="opset1">
			<data levels="255"/>
			<input>
				<port id="0">
					<dim>12</dim>
					<dim>24</dim>
					<dim>1</dim>
					<dim>1</dim>
				</port>
				<port id="1">
					<dim>1</dim>
				</port>
				<port id="2">
					<dim>1</dim>
				</port>
				<port id="3">
					<dim>12</dim>
					<dim>1</dim>
					<dim>1</dim>
					<dim>1</dim>
				</port>
				<port id="4">
					<dim>12</dim>
					<dim>1</dim>
					<dim>1</dim>
					<dim>1</dim>
				</port>
			</input>
			<output>
				<port id="5" precision="FP16">
					<dim>12</dim>
					<dim>24</dim>
					<dim>1</dim>
					<dim>1</dim>
				</port>
			</output>
		</layer>
		<layer id="69" name="338" type="Convolution" version="opset1">
			<data dilations="1,1" output_padding="0,0" pads_begin="0,0" pads_end="0,0" strides="1,1"/>
			<input>
				<port id="0">
					<dim>1</dim>
					<dim>24</dim>
					<dim>150</dim>
					<dim>150</dim>
				</port>
				<port id="1">
					<dim>12</dim>
					<dim>24</dim>
					<dim>1</dim>
					<dim>1</dim>
				</port>
			</input>
			<output>
				<port id="2" precision="FP16">
					<dim>1</dim>
					<dim>12</dim>
					<dim>150</dim>
					<dim>150</dim>
				</port>
			</output>
		</layer>
		<layer id="70" name="data_add_96869691/copy_const325_const" type="Const" version="opset1">
			<data element_type="f16" offset="1665" shape="1,12,1,1" size="24"/>
			<output>
				<port id="1" precision="FP16">
					<dim>1</dim>
					<dim>12</dim>
					<dim>1</dim>
					<dim>1</dim>
				</port>
			</output>
		</layer>
		<layer id="71" name="339/variance/Fused_Add_" type="Add" version="opset1">
			<input>
				<port id="0">
					<dim>1</dim>
					<dim>12</dim>
					<dim>150</dim>
					<dim>150</dim>
				</port>
				<port id="1">
					<dim>1</dim>
					<dim>12</dim>
					<dim>1</dim>
					<dim>1</dim>
				</port>
			</input>
			<output>
				<port id="2" precision="FP16">
					<dim>1</dim>
					<dim>12</dim>
					<dim>150</dim>
					<dim>150</dim>
				</port>
			</output>
		</layer>
		<layer id="72" name="12691273_const" type="Const" version="opset1">
			<data element_type="f16" offset="1689" shape="" size="2"/>
			<output>
				<port id="1" precision="FP16"/>
			</output>
		</layer>
		<layer id="73" name="12701274_const" type="Const" version="opset1">
			<data element_type="f16" offset="1691" shape="" size="2"/>
			<output>
				<port id="1" precision="FP16"/>
			</output>
		</layer>
		<layer id="74" name="12711275_const" type="Const" version="opset1">
			<data element_type="f16" offset="1689" shape="" size="2"/>
			<output>
				<port id="1" precision="FP16"/>
			</output>
		</layer>
		<layer id="75" name="12721276_const" type="Const" version="opset1">
			<data element_type="f16" offset="1691" shape="" size="2"/>
			<output>
				<port id="1" precision="FP16"/>
			</output>
		</layer>
		<layer id="76" name="340/fq_input_0" type="FakeQuantize" version="opset1">
			<data levels="256"/>
			<input>
				<port id="0">
					<dim>1</dim>
					<dim>12</dim>
					<dim>150</dim>
					<dim>150</dim>
				</port>
				<port id="1"/>
				<port id="2"/>
				<port id="3"/>
				<port id="4"/>
			</input>
			<output>
				<port id="5" precision="FP16">
					<dim>1</dim>
					<dim>12</dim>
					<dim>150</dim>
					<dim>150</dim>
				</port>
			</output>
		</layer>
		<layer id="77" name="340/fq_weights_1/Convert_to_float/Cast_05383_const" type="Const" version="opset1">
			<data element_type="u8" offset="1693" shape="72,12,1,1" size="864"/>
			<output>
				<port id="1" precision="U8">
					<dim>72</dim>
					<dim>12</dim>
					<dim>1</dim>
					<dim>1</dim>
				</port>
			</output>
		</layer>
		<layer id="78" name="340/fq_weights_1/Convert_to_float" type="Convert" version="opset1">
			<data destination_type="f16"/>
			<input>
				<port id="0">
					<dim>72</dim>
					<dim>12</dim>
					<dim>1</dim>
					<dim>1</dim>
				</port>
			</input>
			<output>
				<port id="1" precision="FP16">
					<dim>72</dim>
					<dim>12</dim>
					<dim>1</dim>
					<dim>1</dim>
				</port>
			</output>
		</layer>
		<layer id="79" name="340/fq_weights_1/Copy/out_low4611_const" type="Const" version="opset1">
			<data element_type="f16" offset="1615" shape="1" size="2"/>
			<output>
				<port id="1" precision="FP16">
					<dim>1</dim>
				</port>
			</output>
		</layer>
		<layer id="80" name="340/fq_weights_1/Copy/out_high4612_const" type="Const" version="opset1">
			<data element_type="f16" offset="7" shape="1" size="2"/>
			<output>
				<port id="1" precision="FP16">
					<dim>1</dim>
				</port>
			</output>
		</layer>
		<layer id="81" name="12811285_const" type="Const" version="opset1">
			<data element_type="f16" offset="2557" shape="72,1,1,1" size="144"/>
			<output>
				<port id="1" precision="FP16">
					<dim>72</dim>
					<dim>1</dim>
					<dim>1</dim>
					<dim>1</dim>
				</port>
			</output>
		</layer>
		<layer id="82" name="12821286_const" type="Const" version="opset1">
			<data element_type="f16" offset="2701" shape="72,1,1,1" size="144"/>
			<output>
				<port id="1" precision="FP16">
					<dim>72</dim>
					<dim>1</dim>
					<dim>1</dim>
					<dim>1</dim>
				</port>
			</output>
		</layer>
		<layer id="83" name="340/fq_weights_1" type="FakeQuantize" version="opset1">
			<data levels="255"/>
			<input>
				<port id="0">
					<dim>72</dim>
					<dim>12</dim>
					<dim>1</dim>
					<dim>1</dim>
				</port>
				<port id="1">
					<dim>1</dim>
				</port>
				<port id="2">
					<dim>1</dim>
				</port>
				<port id="3">
					<dim>72</dim>
					<dim>1</dim>
					<dim>1</dim>
					<dim>1</dim>
				</port>
				<port id="4">
					<dim>72</dim>
					<dim>1</dim>
					<dim>1</dim>
					<dim>1</dim>
				</port>
			</input>
			<output>
				<port id="5" precision="FP16">
					<dim>72</dim>
					<dim>12</dim>
					<dim>1</dim>
					<dim>1</dim>
				</port>
			</output>
		</layer>
		<layer id="84" name="340" type="Convolution" version="opset1">
			<data dilations="1,1" output_padding="0,0" pads_begin="0,0" pads_end="0,0" strides="1,1"/>
			<input>
				<port id="0">
					<dim>1</dim>
					<dim>12</dim>
					<dim>150</dim>
					<dim>150</dim>
				</port>
				<port id="1">
					<dim>72</dim>
					<dim>12</dim>
					<dim>1</dim>
					<dim>1</dim>
				</port>
			</input>
			<output>
				<port id="2" precision="FP16">
					<dim>1</dim>
					<dim>72</dim>
					<dim>150</dim>
					<dim>150</dim>
				</port>
			</output>
		</layer>
		<layer id="85" name="data_add_96949699/copy_const329_const" type="Const" version="opset1">
			<data element_type="f16" offset="2845" shape="1,72,1,1" size="144"/>
			<output>
				<port id="1" precision="FP16">
					<dim>1</dim>
					<dim>72</dim>
					<dim>1</dim>
					<dim>1</dim>
				</port>
			</output>
		</layer>
		<layer id="86" name="341/variance/Fused_Add_" type="Add" version="opset1">
			<input>
				<port id="0">
					<dim>1</dim>
					<dim>72</dim>
					<dim>150</dim>
					<dim>150</dim>
				</port>
				<port id="1">
					<dim>1</dim>
					<dim>72</dim>
					<dim>1</dim>
					<dim>1</dim>
				</port>
			</input>
			<output>
				<port id="2" precision="FP16">
					<dim>1</dim>
					<dim>72</dim>
					<dim>150</dim>
					<dim>150</dim>
				</port>
			</output>
		</layer>
		<layer id="87" name="342" type="ReLU" version="opset1">
			<input>
				<port id="0">
					<dim>1</dim>
					<dim>72</dim>
					<dim>150</dim>
					<dim>150</dim>
				</port>
			</input>
			<output>
				<port id="1" precision="FP16">
					<dim>1</dim>
					<dim>72</dim>
					<dim>150</dim>
					<dim>150</dim>
				</port>
			</output>
		</layer>
		<layer id="88" name="14791483_const" type="Const" version="opset1">
			<data element_type="f16" offset="2989" shape="1,72,1,1" size="144"/>
			<output>
				<port id="1" precision="FP16">
					<dim>1</dim>
					<dim>72</dim>
					<dim>1</dim>
					<dim>1</dim>
				</port>
			</output>
		</layer>
		<layer id="89" name="14801484_const" type="Const" version="opset1">
			<data element_type="f16" offset="3133" shape="1,72,1,1" size="144"/>
			<output>
				<port id="1" precision="FP16">
					<dim>1</dim>
					<dim>72</dim>
					<dim>1</dim>
					<dim>1</dim>
				</port>
			</output>
		</layer>
		<layer id="90" name="14811485_const" type="Const" version="opset1">
			<data element_type="f16" offset="2989" shape="1,72,1,1" size="144"/>
			<output>
				<port id="1" precision="FP16">
					<dim>1</dim>
					<dim>72</dim>
					<dim>1</dim>
					<dim>1</dim>
				</port>
			</output>
		</layer>
		<layer id="91" name="14821486_const" type="Const" version="opset1">
			<data element_type="f16" offset="3133" shape="1,72,1,1" size="144"/>
			<output>
				<port id="1" precision="FP16">
					<dim>1</dim>
					<dim>72</dim>
					<dim>1</dim>
					<dim>1</dim>
				</port>
			</output>
		</layer>
		<layer id="92" name="343/fq_input_0" type="FakeQuantize" version="opset1">
			<data levels="256"/>
			<input>
				<port id="0">
					<dim>1</dim>
					<dim>72</dim>
					<dim>150</dim>
					<dim>150</dim>
				</port>
				<port id="1">
					<dim>1</dim>
					<dim>72</dim>
					<dim>1</dim>
					<dim>1</dim>
				</port>
				<port id="2">
					<dim>1</dim>
					<dim>72</dim>
					<dim>1</dim>
					<dim>1</dim>
				</port>
				<port id="3">
					<dim>1</dim>
					<dim>72</dim>
					<dim>1</dim>
					<dim>1</dim>
				</port>
				<port id="4">
					<dim>1</dim>
					<dim>72</dim>
					<dim>1</dim>
					<dim>1</dim>
				</port>
			</input>
			<output>
				<port id="5" precision="FP16">
					<dim>1</dim>
					<dim>72</dim>
					<dim>150</dim>
					<dim>150</dim>
				</port>
			</output>
		</layer>
		<layer id="93" name="343/fq_weights_1/Convert_to_float/Cast_05407_const" type="Const" version="opset1">
			<data element_type="u8" offset="3277" shape="72,1,3,3" size="648"/>
			<output>
				<port id="1" precision="U8">
					<dim>72</dim>
					<dim>1</dim>
					<dim>3</dim>
					<dim>3</dim>
				</port>
			</output>
		</layer>
		<layer id="94" name="343/fq_weights_1/Convert_to_float" type="Convert" version="opset1">
			<data destination_type="f16"/>
			<input>
				<port id="0">
					<dim>72</dim>
					<dim>1</dim>
					<dim>3</dim>
					<dim>3</dim>
				</port>
			</input>
			<output>
				<port id="1" precision="FP16">
					<dim>72</dim>
					<dim>1</dim>
					<dim>3</dim>
					<dim>3</dim>
				</port>
			</output>
		</layer>
		<layer id="95" name="343/fq_weights_1/Copy/out_low4339_const" type="Const" version="opset1">
			<data element_type="f16" offset="1615" shape="1" size="2"/>
			<output>
				<port id="1" precision="FP16">
					<dim>1</dim>
				</port>
			</output>
		</layer>
		<layer id="96" name="343/fq_weights_1/Copy/out_high4340_const" type="Const" version="opset1">
			<data element_type="f16" offset="7" shape="1" size="2"/>
			<output>
				<port id="1" precision="FP16">
					<dim>1</dim>
				</port>
			</output>
		</layer>
		<layer id="97" name="14911495_const" type="Const" version="opset1">
			<data element_type="f16" offset="3925" shape="72,1,1,1" size="144"/>
			<output>
				<port id="1" precision="FP16">
					<dim>72</dim>
					<dim>1</dim>
					<dim>1</dim>
					<dim>1</dim>
				</port>
			</output>
		</layer>
		<layer id="98" name="14921496_const" type="Const" version="opset1">
			<data element_type="f16" offset="4069" shape="72,1,1,1" size="144"/>
			<output>
				<port id="1" precision="FP16">
					<dim>72</dim>
					<dim>1</dim>
					<dim>1</dim>
					<dim>1</dim>
				</port>
			</output>
		</layer>
		<layer id="99" name="343/fq_weights_1" type="FakeQuantize" version="opset1">
			<data levels="255"/>
			<input>
				<port id="0">
					<dim>72</dim>
					<dim>1</dim>
					<dim>3</dim>
					<dim>3</dim>
				</port>
				<port id="1">
					<dim>1</dim>
				</port>
				<port id="2">
					<dim>1</dim>
				</port>
				<port id="3">
					<dim>72</dim>
					<dim>1</dim>
					<dim>1</dim>
					<dim>1</dim>
				</port>
				<port id="4">
					<dim>72</dim>
					<dim>1</dim>
					<dim>1</dim>
					<dim>1</dim>
				</port>
			</input>
			<output>
				<port id="5" precision="FP16">
					<dim>72</dim>
					<dim>1</dim>
					<dim>3</dim>
					<dim>3</dim>
				</port>
			</output>
		</layer>
		<layer id="100" name="6080/value6082_const" type="Const" version="opset1">
			<data element_type="i64" offset="4213" shape="5" size="40"/>
			<output>
				<port id="1" precision="I64">
					<dim>5</dim>
				</port>
			</output>
		</layer>
		<layer id="101" name="6080" type="Reshape" version="opset1">
			<data special_zero="True"/>
			<input>
				<port id="0">
					<dim>72</dim>
					<dim>1</dim>
					<dim>3</dim>
					<dim>3</dim>
				</port>
				<port id="1">
					<dim>5</dim>
				</port>
			</input>
			<output>
				<port id="2" precision="FP16">
					<dim>72</dim>
					<dim>1</dim>
					<dim>1</dim>
					<dim>3</dim>
					<dim>3</dim>
				</port>
			</output>
		</layer>
		<layer id="102" name="343" type="GroupConvolution" version="opset1">
			<data dilations="1,1" output_padding="0,0" pads_begin="1,1" pads_end="1,1" strides="2,2"/>
			<input>
				<port id="0">
					<dim>1</dim>
					<dim>72</dim>
					<dim>150</dim>
					<dim>150</dim>
				</port>
				<port id="1">
					<dim>72</dim>
					<dim>1</dim>
					<dim>1</dim>
					<dim>3</dim>
					<dim>3</dim>
				</port>
			</input>
			<output>
				<port id="2" precision="FP16">
					<dim>1</dim>
					<dim>72</dim>
					<dim>75</dim>
					<dim>75</dim>
				</port>
			</output>
		</layer>
		<layer id="103" name="data_add_97029707/copy_const334_const" type="Const" version="opset1">
			<data element_type="f16" offset="4253" shape="1,72,1,1" size="144"/>
			<output>
				<port id="1" precision="FP16">
					<dim>1</dim>
					<dim>72</dim>
					<dim>1</dim>
					<dim>1</dim>
				</port>
			</output>
		</layer>
		<layer id="104" name="344/variance/Fused_Add_" type="Add" version="opset1">
			<input>
				<port id="0">
					<dim>1</dim>
					<dim>72</dim>
					<dim>75</dim>
					<dim>75</dim>
				</port>
				<port id="1">
					<dim>1</dim>
					<dim>72</dim>
					<dim>1</dim>
					<dim>1</dim>
				</port>
			</input>
			<output>
				<port id="2" precision="FP16">
					<dim>1</dim>
					<dim>72</dim>
					<dim>75</dim>
					<dim>75</dim>
				</port>
			</output>
		</layer>
		<layer id="105" name="345" type="ReLU" version="opset1">
			<input>
				<port id="0">
					<dim>1</dim>
					<dim>72</dim>
					<dim>75</dim>
					<dim>75</dim>
				</port>
			</input>
			<output>
				<port id="1" precision="FP16">
					<dim>1</dim>
					<dim>72</dim>
					<dim>75</dim>
					<dim>75</dim>
				</port>
			</output>
		</layer>
		<layer id="106" name="18591863_const" type="Const" version="opset1">
			<data element_type="f16" offset="4397" shape="" size="2"/>
			<output>
				<port id="1" precision="FP16"/>
			</output>
		</layer>
		<layer id="107" name="18601864_const" type="Const" version="opset1">
			<data element_type="f16" offset="4399" shape="" size="2"/>
			<output>
				<port id="1" precision="FP16"/>
			</output>
		</layer>
		<layer id="108" name="18611865_const" type="Const" version="opset1">
			<data element_type="f16" offset="4397" shape="" size="2"/>
			<output>
				<port id="1" precision="FP16"/>
			</output>
		</layer>
		<layer id="109" name="18621866_const" type="Const" version="opset1">
			<data element_type="f16" offset="4399" shape="" size="2"/>
			<output>
				<port id="1" precision="FP16"/>
			</output>
		</layer>
		<layer id="110" name="346/fq_input_0" type="FakeQuantize" version="opset1">
			<data levels="256"/>
			<input>
				<port id="0">
					<dim>1</dim>
					<dim>72</dim>
					<dim>75</dim>
					<dim>75</dim>
				</port>
				<port id="1"/>
				<port id="2"/>
				<port id="3"/>
				<port id="4"/>
			</input>
			<output>
				<port id="5" precision="FP16">
					<dim>1</dim>
					<dim>72</dim>
					<dim>75</dim>
					<dim>75</dim>
				</port>
			</output>
		</layer>
		<layer id="111" name="346/fq_weights_1/Convert_to_float/Cast_05419_const" type="Const" version="opset1">
			<data element_type="u8" offset="4401" shape="18,72,1,1" size="1296"/>
			<output>
				<port id="1" precision="U8">
					<dim>18</dim>
					<dim>72</dim>
					<dim>1</dim>
					<dim>1</dim>
				</port>
			</output>
		</layer>
		<layer id="112" name="346/fq_weights_1/Convert_to_float" type="Convert" version="opset1">
			<data destination_type="f16"/>
			<input>
				<port id="0">
					<dim>18</dim>
					<dim>72</dim>
					<dim>1</dim>
					<dim>1</dim>
				</port>
			</input>
			<output>
				<port id="1" precision="FP16">
					<dim>18</dim>
					<dim>72</dim>
					<dim>1</dim>
					<dim>1</dim>
				</port>
			</output>
		</layer>
		<layer id="113" name="346/fq_weights_1/Copy/out_low4435_const" type="Const" version="opset1">
			<data element_type="f16" offset="5697" shape="1" size="2"/>
			<output>
				<port id="1" precision="FP16">
					<dim>1</dim>
				</port>
			</output>
		</layer>
		<layer id="114" name="346/fq_weights_1/Copy/out_high4436_const" type="Const" version="opset1">
			<data element_type="f16" offset="7" shape="1" size="2"/>
			<output>
				<port id="1" precision="FP16">
					<dim>1</dim>
				</port>
			</output>
		</layer>
		<layer id="115" name="18711875_const" type="Const" version="opset1">
			<data element_type="f16" offset="5699" shape="18,1,1,1" size="36"/>
			<output>
				<port id="1" precision="FP16">
					<dim>18</dim>
					<dim>1</dim>
					<dim>1</dim>
					<dim>1</dim>
				</port>
			</output>
		</layer>
		<layer id="116" name="18721876_const" type="Const" version="opset1">
			<data element_type="f16" offset="5735" shape="18,1,1,1" size="36"/>
			<output>
				<port id="1" precision="FP16">
					<dim>18</dim>
					<dim>1</dim>
					<dim>1</dim>
					<dim>1</dim>
				</port>
			</output>
		</layer>
		<layer id="117" name="346/fq_weights_1" type="FakeQuantize" version="opset1">
			<data levels="255"/>
			<input>
				<port id="0">
					<dim>18</dim>
					<dim>72</dim>
					<dim>1</dim>
					<dim>1</dim>
				</port>
				<port id="1">
					<dim>1</dim>
				</port>
				<port id="2">
					<dim>1</dim>
				</port>
				<port id="3">
					<dim>18</dim>
					<dim>1</dim>
					<dim>1</dim>
					<dim>1</dim>
				</port>
				<port id="4">
					<dim>18</dim>
					<dim>1</dim>
					<dim>1</dim>
					<dim>1</dim>
				</port>
			</input>
			<output>
				<port id="5" precision="FP16">
					<dim>18</dim>
					<dim>72</dim>
					<dim>1</dim>
					<dim>1</dim>
				</port>
			</output>
		</layer>
		<layer id="118" name="346" type="Convolution" version="opset1">
			<data dilations="1,1" output_padding="0,0" pads_begin="0,0" pads_end="0,0" strides="1,1"/>
			<input>
				<port id="0">
					<dim>1</dim>
					<dim>72</dim>
					<dim>75</dim>
					<dim>75</dim>
				</port>
				<port id="1">
					<dim>18</dim>
					<dim>72</dim>
					<dim>1</dim>
					<dim>1</dim>
				</port>
			</input>
			<output>
				<port id="2" precision="FP16">
					<dim>1</dim>
					<dim>18</dim>
					<dim>75</dim>
					<dim>75</dim>
				</port>
			</output>
		</layer>
		<layer id="119" name="data_add_97109715/copy_const339_const" type="Const" version="opset1">
			<data element_type="f16" offset="5771" shape="1,18,1,1" size="36"/>
			<output>
				<port id="1" precision="FP16">
					<dim>1</dim>
					<dim>18</dim>
					<dim>1</dim>
					<dim>1</dim>
				</port>
			</output>
		</layer>
		<layer id="120" name="347/variance/Fused_Add_" type="Add" version="opset1">
			<input>
				<port id="0">
					<dim>1</dim>
					<dim>18</dim>
					<dim>75</dim>
					<dim>75</dim>
				</port>
				<port id="1">
					<dim>1</dim>
					<dim>18</dim>
					<dim>1</dim>
					<dim>1</dim>
				</port>
			</input>
			<output>
				<port id="2" precision="FP16">
					<dim>1</dim>
					<dim>18</dim>
					<dim>75</dim>
					<dim>75</dim>
				</port>
			</output>
		</layer>
		<layer id="121" name="22592263_const" type="Const" version="opset1">
			<data element_type="f16" offset="5807" shape="" size="2"/>
			<output>
				<port id="1" precision="FP16"/>
			</output>
		</layer>
		<layer id="122" name="22602264_const" type="Const" version="opset1">
			<data element_type="f16" offset="5809" shape="" size="2"/>
			<output>
				<port id="1" precision="FP16"/>
			</output>
		</layer>
		<layer id="123" name="22612265_const" type="Const" version="opset1">
			<data element_type="f16" offset="5807" shape="" size="2"/>
			<output>
				<port id="1" precision="FP16"/>
			</output>
		</layer>
		<layer id="124" name="22622266_const" type="Const" version="opset1">
			<data element_type="f16" offset="5809" shape="" size="2"/>
			<output>
				<port id="1" precision="FP16"/>
			</output>
		</layer>
		<layer id="125" name="348/fq_input_0" type="FakeQuantize" version="opset1">
			<data levels="256"/>
			<input>
				<port id="0">
					<dim>1</dim>
					<dim>18</dim>
					<dim>75</dim>
					<dim>75</dim>
				</port>
				<port id="1"/>
				<port id="2"/>
				<port id="3"/>
				<port id="4"/>
			</input>
			<output>
				<port id="5" precision="FP16">
					<dim>1</dim>
					<dim>18</dim>
					<dim>75</dim>
					<dim>75</dim>
				</port>
			</output>
		</layer>
		<layer id="126" name="348/fq_weights_1/Convert_to_float/Cast_05335_const" type="Const" version="opset1">
			<data element_type="u8" offset="5811" shape="108,18,1,1" size="1944"/>
			<output>
				<port id="1" precision="U8">
					<dim>108</dim>
					<dim>18</dim>
					<dim>1</dim>
					<dim>1</dim>
				</port>
			</output>
		</layer>
		<layer id="127" name="348/fq_weights_1/Convert_to_float" type="Convert" version="opset1">
			<data destination_type="f16"/>
			<input>
				<port id="0">
					<dim>108</dim>
					<dim>18</dim>
					<dim>1</dim>
					<dim>1</dim>
				</port>
			</input>
			<output>
				<port id="1" precision="FP16">
					<dim>108</dim>
					<dim>18</dim>
					<dim>1</dim>
					<dim>1</dim>
				</port>
			</output>
		</layer>
		<layer id="128" name="348/fq_weights_1/Copy/out_low4539_const" type="Const" version="opset1">
			<data element_type="f16" offset="5697" shape="1" size="2"/>
			<output>
				<port id="1" precision="FP16">
					<dim>1</dim>
				</port>
			</output>
		</layer>
		<layer id="129" name="348/fq_weights_1/Copy/out_high4540_const" type="Const" version="opset1">
			<data element_type="f16" offset="7" shape="1" size="2"/>
			<output>
				<port id="1" precision="FP16">
					<dim>1</dim>
				</port>
			</output>
		</layer>
		<layer id="130" name="22712275_const" type="Const" version="opset1">
			<data element_type="f16" offset="7755" shape="108,1,1,1" size="216"/>
			<output>
				<port id="1" precision="FP16">
					<dim>108</dim>
					<dim>1</dim>
					<dim>1</dim>
					<dim>1</dim>
				</port>
			</output>
		</layer>
		<layer id="131" name="22722276_const" type="Const" version="opset1">
			<data element_type="f16" offset="7971" shape="108,1,1,1" size="216"/>
			<output>
				<port id="1" precision="FP16">
					<dim>108</dim>
					<dim>1</dim>
					<dim>1</dim>
					<dim>1</dim>
				</port>
			</output>
		</layer>
		<layer id="132" name="348/fq_weights_1" type="FakeQuantize" version="opset1">
			<data levels="255"/>
			<input>
				<port id="0">
					<dim>108</dim>
					<dim>18</dim>
					<dim>1</dim>
					<dim>1</dim>
				</port>
				<port id="1">
					<dim>1</dim>
				</port>
				<port id="2">
					<dim>1</dim>
				</port>
				<port id="3">
					<dim>108</dim>
					<dim>1</dim>
					<dim>1</dim>
					<dim>1</dim>
				</port>
				<port id="4">
					<dim>108</dim>
					<dim>1</dim>
					<dim>1</dim>
					<dim>1</dim>
				</port>
			</input>
			<output>
				<port id="5" precision="FP16">
					<dim>108</dim>
					<dim>18</dim>
					<dim>1</dim>
					<dim>1</dim>
				</port>
			</output>
		</layer>
		<layer id="133" name="348" type="Convolution" version="opset1">
			<data dilations="1,1" output_padding="0,0" pads_begin="0,0" pads_end="0,0" strides="1,1"/>
			<input>
				<port id="0">
					<dim>1</dim>
					<dim>18</dim>
					<dim>75</dim>
					<dim>75</dim>
				</port>
				<port id="1">
					<dim>108</dim>
					<dim>18</dim>
					<dim>1</dim>
					<dim>1</dim>
				</port>
			</input>
			<output>
				<port id="2" precision="FP16">
					<dim>1</dim>
					<dim>108</dim>
					<dim>75</dim>
					<dim>75</dim>
				</port>
			</output>
		</layer>
		<layer id="134" name="data_add_97189723/copy_const343_const" type="Const" version="opset1">
			<data element_type="f16" offset="8187" shape="1,108,1,1" size="216"/>
			<output>
				<port id="1" precision="FP16">
					<dim>1</dim>
					<dim>108</dim>
					<dim>1</dim>
					<dim>1</dim>
				</port>
			</output>
		</layer>
		<layer id="135" name="349/variance/Fused_Add_" type="Add" version="opset1">
			<input>
				<port id="0">
					<dim>1</dim>
					<dim>108</dim>
					<dim>75</dim>
					<dim>75</dim>
				</port>
				<port id="1">
					<dim>1</dim>
					<dim>108</dim>
					<dim>1</dim>
					<dim>1</dim>
				</port>
			</input>
			<output>
				<port id="2" precision="FP16">
					<dim>1</dim>
					<dim>108</dim>
					<dim>75</dim>
					<dim>75</dim>
				</port>
			</output>
		</layer>
		<layer id="136" name="350" type="ReLU" version="opset1">
			<input>
				<port id="0">
					<dim>1</dim>
					<dim>108</dim>
					<dim>75</dim>
					<dim>75</dim>
				</port>
			</input>
			<output>
				<port id="1" precision="FP16">
					<dim>1</dim>
					<dim>108</dim>
					<dim>75</dim>
					<dim>75</dim>
				</port>
			</output>
		</layer>
		<layer id="137" name="13091313_const" type="Const" version="opset1">
			<data element_type="f16" offset="8403" shape="1,108,1,1" size="216"/>
			<output>
				<port id="1" precision="FP16">
					<dim>1</dim>
					<dim>108</dim>
					<dim>1</dim>
					<dim>1</dim>
				</port>
			</output>
		</layer>
		<layer id="138" name="13101314_const" type="Const" version="opset1">
			<data element_type="f16" offset="8619" shape="1,108,1,1" size="216"/>
			<output>
				<port id="1" precision="FP16">
					<dim>1</dim>
					<dim>108</dim>
					<dim>1</dim>
					<dim>1</dim>
				</port>
			</output>
		</layer>
		<layer id="139" name="13111315_const" type="Const" version="opset1">
			<data element_type="f16" offset="8403" shape="1,108,1,1" size="216"/>
			<output>
				<port id="1" precision="FP16">
					<dim>1</dim>
					<dim>108</dim>
					<dim>1</dim>
					<dim>1</dim>
				</port>
			</output>
		</layer>
		<layer id="140" name="13121316_const" type="Const" version="opset1">
			<data element_type="f16" offset="8619" shape="1,108,1,1" size="216"/>
			<output>
				<port id="1" precision="FP16">
					<dim>1</dim>
					<dim>108</dim>
					<dim>1</dim>
					<dim>1</dim>
				</port>
			</output>
		</layer>
		<layer id="141" name="351/fq_input_0" type="FakeQuantize" version="opset1">
			<data levels="256"/>
			<input>
				<port id="0">
					<dim>1</dim>
					<dim>108</dim>
					<dim>75</dim>
					<dim>75</dim>
				</port>
				<port id="1">
					<dim>1</dim>
					<dim>108</dim>
					<dim>1</dim>
					<dim>1</dim>
				</port>
				<port id="2">
					<dim>1</dim>
					<dim>108</dim>
					<dim>1</dim>
					<dim>1</dim>
				</port>
				<port id="3">
					<dim>1</dim>
					<dim>108</dim>
					<dim>1</dim>
					<dim>1</dim>
				</port>
				<port id="4">
					<dim>1</dim>
					<dim>108</dim>
					<dim>1</dim>
					<dim>1</dim>
				</port>
			</input>
			<output>
				<port id="5" precision="FP16">
					<dim>1</dim>
					<dim>108</dim>
					<dim>75</dim>
					<dim>75</dim>
				</port>
			</output>
		</layer>
		<layer id="142" name="351/fq_weights_1/Convert_to_float/Cast_05349_const" type="Const" version="opset1">
			<data element_type="u8" offset="8835" shape="108,1,3,3" size="972"/>
			<output>
				<port id="1" precision="U8">
					<dim>108</dim>
					<dim>1</dim>
					<dim>3</dim>
					<dim>3</dim>
				</port>
			</output>
		</layer>
		<layer id="143" name="351/fq_weights_1/Convert_to_float" type="Convert" version="opset1">
			<data destination_type="f16"/>
			<input>
				<port id="0">
					<dim>108</dim>
					<dim>1</dim>
					<dim>3</dim>
					<dim>3</dim>
				</port>
			</input>
			<output>
				<port id="1" precision="FP16">
					<dim>108</dim>
					<dim>1</dim>
					<dim>3</dim>
					<dim>3</dim>
				</port>
			</output>
		</layer>
		<layer id="144" name="351/fq_weights_1/Copy/out_low4675_const" type="Const" version="opset1">
			<data element_type="f16" offset="5697" shape="1" size="2"/>
			<output>
				<port id="1" precision="FP16">
					<dim>1</dim>
				</port>
			</output>
		</layer>
		<layer id="145" name="351/fq_weights_1/Copy/out_high4676_const" type="Const" version="opset1">
			<data element_type="f16" offset="7" shape="1" size="2"/>
			<output>
				<port id="1" precision="FP16">
					<dim>1</dim>
				</port>
			</output>
		</layer>
		<layer id="146" name="13211325_const" type="Const" version="opset1">
			<data element_type="f16" offset="9807" shape="108,1,1,1" size="216"/>
			<output>
				<port id="1" precision="FP16">
					<dim>108</dim>
					<dim>1</dim>
					<dim>1</dim>
					<dim>1</dim>
				</port>
			</output>
		</layer>
		<layer id="147" name="13221326_const" type="Const" version="opset1">
			<data element_type="f16" offset="10023" shape="108,1,1,1" size="216"/>
			<output>
				<port id="1" precision="FP16">
					<dim>108</dim>
					<dim>1</dim>
					<dim>1</dim>
					<dim>1</dim>
				</port>
			</output>
		</layer>
		<layer id="148" name="351/fq_weights_1" type="FakeQuantize" version="opset1">
			<data levels="255"/>
			<input>
				<port id="0">
					<dim>108</dim>
					<dim>1</dim>
					<dim>3</dim>
					<dim>3</dim>
				</port>
				<port id="1">
					<dim>1</dim>
				</port>
				<port id="2">
					<dim>1</dim>
				</port>
				<port id="3">
					<dim>108</dim>
					<dim>1</dim>
					<dim>1</dim>
					<dim>1</dim>
				</port>
				<port id="4">
					<dim>108</dim>
					<dim>1</dim>
					<dim>1</dim>
					<dim>1</dim>
				</port>
			</input>
			<output>
				<port id="5" precision="FP16">
					<dim>108</dim>
					<dim>1</dim>
					<dim>3</dim>
					<dim>3</dim>
				</port>
			</output>
		</layer>
		<layer id="149" name="6100/value6102_const" type="Const" version="opset1">
			<data element_type="i64" offset="10239" shape="5" size="40"/>
			<output>
				<port id="1" precision="I64">
					<dim>5</dim>
				</port>
			</output>
		</layer>
		<layer id="150" name="6100" type="Reshape" version="opset1">
			<data special_zero="True"/>
			<input>
				<port id="0">
					<dim>108</dim>
					<dim>1</dim>
					<dim>3</dim>
					<dim>3</dim>
				</port>
				<port id="1">
					<dim>5</dim>
				</port>
			</input>
			<output>
				<port id="2" precision="FP16">
					<dim>108</dim>
					<dim>1</dim>
					<dim>1</dim>
					<dim>3</dim>
					<dim>3</dim>
				</port>
			</output>
		</layer>
		<layer id="151" name="351" type="GroupConvolution" version="opset1">
			<data dilations="1,1" output_padding="0,0" pads_begin="1,1" pads_end="1,1" strides="1,1"/>
			<input>
				<port id="0">
					<dim>1</dim>
					<dim>108</dim>
					<dim>75</dim>
					<dim>75</dim>
				</port>
				<port id="1">
					<dim>108</dim>
					<dim>1</dim>
					<dim>1</dim>
					<dim>3</dim>
					<dim>3</dim>
				</port>
			</input>
			<output>
				<port id="2" precision="FP16">
					<dim>1</dim>
					<dim>108</dim>
					<dim>75</dim>
					<dim>75</dim>
				</port>
			</output>
		</layer>
		<layer id="152" name="data_add_97269731/copy_const348_const" type="Const" version="opset1">
			<data element_type="f16" offset="10279" shape="1,108,1,1" size="216"/>
			<output>
				<port id="1" precision="FP16">
					<dim>1</dim>
					<dim>108</dim>
					<dim>1</dim>
					<dim>1</dim>
				</port>
			</output>
		</layer>
		<layer id="153" name="352/variance/Fused_Add_" type="Add" version="opset1">
			<input>
				<port id="0">
					<dim>1</dim>
					<dim>108</dim>
					<dim>75</dim>
					<dim>75</dim>
				</port>
				<port id="1">
					<dim>1</dim>
					<dim>108</dim>
					<dim>1</dim>
					<dim>1</dim>
				</port>
			</input>
			<output>
				<port id="2" precision="FP16">
					<dim>1</dim>
					<dim>108</dim>
					<dim>75</dim>
					<dim>75</dim>
				</port>
			</output>
		</layer>
		<layer id="154" name="353" type="ReLU" version="opset1">
			<input>
				<port id="0">
					<dim>1</dim>
					<dim>108</dim>
					<dim>75</dim>
					<dim>75</dim>
				</port>
			</input>
			<output>
				<port id="1" precision="FP16">
					<dim>1</dim>
					<dim>108</dim>
					<dim>75</dim>
					<dim>75</dim>
				</port>
			</output>
		</layer>
		<layer id="155" name="11291133_const" type="Const" version="opset1">
			<data element_type="f16" offset="10495" shape="" size="2"/>
			<output>
				<port id="1" precision="FP16"/>
			</output>
		</layer>
		<layer id="156" name="11301134_const" type="Const" version="opset1">
			<data element_type="f16" offset="10497" shape="" size="2"/>
			<output>
				<port id="1" precision="FP16"/>
			</output>
		</layer>
		<layer id="157" name="11311135_const" type="Const" version="opset1">
			<data element_type="f16" offset="10495" shape="" size="2"/>
			<output>
				<port id="1" precision="FP16"/>
			</output>
		</layer>
		<layer id="158" name="11321136_const" type="Const" version="opset1">
			<data element_type="f16" offset="10497" shape="" size="2"/>
			<output>
				<port id="1" precision="FP16"/>
			</output>
		</layer>
		<layer id="159" name="354/fq_input_0" type="FakeQuantize" version="opset1">
			<data levels="256"/>
			<input>
				<port id="0">
					<dim>1</dim>
					<dim>108</dim>
					<dim>75</dim>
					<dim>75</dim>
				</port>
				<port id="1"/>
				<port id="2"/>
				<port id="3"/>
				<port id="4"/>
			</input>
			<output>
				<port id="5" precision="FP16">
					<dim>1</dim>
					<dim>108</dim>
					<dim>75</dim>
					<dim>75</dim>
				</port>
			</output>
		</layer>
		<layer id="160" name="354/fq_weights_1/Convert_to_float/Cast_05323_const" type="Const" version="opset1">
			<data element_type="u8" offset="10499" shape="18,108,1,1" size="1944"/>
			<output>
				<port id="1" precision="U8">
					<dim>18</dim>
					<dim>108</dim>
					<dim>1</dim>
					<dim>1</dim>
				</port>
			</output>
		</layer>
		<layer id="161" name="354/fq_weights_1/Convert_to_float" type="Convert" version="opset1">
			<data destination_type="f16"/>
			<input>
				<port id="0">
					<dim>18</dim>
					<dim>108</dim>
					<dim>1</dim>
					<dim>1</dim>
				</port>
			</input>
			<output>
				<port id="1" precision="FP16">
					<dim>18</dim>
					<dim>108</dim>
					<dim>1</dim>
					<dim>1</dim>
				</port>
			</output>
		</layer>
		<layer id="162" name="354/fq_weights_1/Copy/out_low4275_const" type="Const" version="opset1">
			<data element_type="f16" offset="12443" shape="1" size="2"/>
			<output>
				<port id="1" precision="FP16">
					<dim>1</dim>
				</port>
			</output>
		</layer>
		<layer id="163" name="354/fq_weights_1/Copy/out_high4276_const" type="Const" version="opset1">
			<data element_type="f16" offset="7" shape="1" size="2"/>
			<output>
				<port id="1" precision="FP16">
					<dim>1</dim>
				</port>
			</output>
		</layer>
		<layer id="164" name="11411145_const" type="Const" version="opset1">
			<data element_type="f16" offset="12445" shape="18,1,1,1" size="36"/>
			<output>
				<port id="1" precision="FP16">
					<dim>18</dim>
					<dim>1</dim>
					<dim>1</dim>
					<dim>1</dim>
				</port>
			</output>
		</layer>
		<layer id="165" name="11421146_const" type="Const" version="opset1">
			<data element_type="f16" offset="12481" shape="18,1,1,1" size="36"/>
			<output>
				<port id="1" precision="FP16">
					<dim>18</dim>
					<dim>1</dim>
					<dim>1</dim>
					<dim>1</dim>
				</port>
			</output>
		</layer>
		<layer id="166" name="354/fq_weights_1" type="FakeQuantize" version="opset1">
			<data levels="255"/>
			<input>
				<port id="0">
					<dim>18</dim>
					<dim>108</dim>
					<dim>1</dim>
					<dim>1</dim>
				</port>
				<port id="1">
					<dim>1</dim>
				</port>
				<port id="2">
					<dim>1</dim>
				</port>
				<port id="3">
					<dim>18</dim>
					<dim>1</dim>
					<dim>1</dim>
					<dim>1</dim>
				</port>
				<port id="4">
					<dim>18</dim>
					<dim>1</dim>
					<dim>1</dim>
					<dim>1</dim>
				</port>
			</input>
			<output>
				<port id="5" precision="FP16">
					<dim>18</dim>
					<dim>108</dim>
					<dim>1</dim>
					<dim>1</dim>
				</port>
			</output>
		</layer>
		<layer id="167" name="354" type="Convolution" version="opset1">
			<data dilations="1,1" output_padding="0,0" pads_begin="0,0" pads_end="0,0" strides="1,1"/>
			<input>
				<port id="0">
					<dim>1</dim>
					<dim>108</dim>
					<dim>75</dim>
					<dim>75</dim>
				</port>
				<port id="1">
					<dim>18</dim>
					<dim>108</dim>
					<dim>1</dim>
					<dim>1</dim>
				</port>
			</input>
			<output>
				<port id="2" precision="FP16">
					<dim>1</dim>
					<dim>18</dim>
					<dim>75</dim>
					<dim>75</dim>
				</port>
			</output>
		</layer>
		<layer id="168" name="data_add_97349739/copy_const353_const" type="Const" version="opset1">
			<data element_type="f16" offset="12517" shape="1,18,1,1" size="36"/>
			<output>
				<port id="1" precision="FP16">
					<dim>1</dim>
					<dim>18</dim>
					<dim>1</dim>
					<dim>1</dim>
				</port>
			</output>
		</layer>
		<layer id="169" name="355/variance/Fused_Add_" type="Add" version="opset1">
			<input>
				<port id="0">
					<dim>1</dim>
					<dim>18</dim>
					<dim>75</dim>
					<dim>75</dim>
				</port>
				<port id="1">
					<dim>1</dim>
					<dim>18</dim>
					<dim>1</dim>
					<dim>1</dim>
				</port>
			</input>
			<output>
				<port id="2" precision="FP16">
					<dim>1</dim>
					<dim>18</dim>
					<dim>75</dim>
					<dim>75</dim>
				</port>
			</output>
		</layer>
		<layer id="170" name="16891693_const" type="Const" version="opset1">
			<data element_type="f16" offset="12553" shape="" size="2"/>
			<output>
				<port id="1" precision="FP16"/>
			</output>
		</layer>
		<layer id="171" name="16901694_const" type="Const" version="opset1">
			<data element_type="f16" offset="12555" shape="" size="2"/>
			<output>
				<port id="1" precision="FP16"/>
			</output>
		</layer>
		<layer id="172" name="16911695_const" type="Const" version="opset1">
			<data element_type="f16" offset="12553" shape="" size="2"/>
			<output>
				<port id="1" precision="FP16"/>
			</output>
		</layer>
		<layer id="173" name="16921696_const" type="Const" version="opset1">
			<data element_type="f16" offset="12555" shape="" size="2"/>
			<output>
				<port id="1" precision="FP16"/>
			</output>
		</layer>
		<layer id="174" name="356/fq_input_1" type="FakeQuantize" version="opset1">
			<data levels="256"/>
			<input>
				<port id="0">
					<dim>1</dim>
					<dim>18</dim>
					<dim>75</dim>
					<dim>75</dim>
				</port>
				<port id="1"/>
				<port id="2"/>
				<port id="3"/>
				<port id="4"/>
			</input>
			<output>
				<port id="5" precision="FP16">
					<dim>1</dim>
					<dim>18</dim>
					<dim>75</dim>
					<dim>75</dim>
				</port>
			</output>
		</layer>
		<layer id="175" name="356" type="Add" version="opset1">
			<input>
				<port id="0">
					<dim>1</dim>
					<dim>18</dim>
					<dim>75</dim>
					<dim>75</dim>
				</port>
				<port id="1">
					<dim>1</dim>
					<dim>18</dim>
					<dim>75</dim>
					<dim>75</dim>
				</port>
			</input>
			<output>
				<port id="2" precision="FP16">
					<dim>1</dim>
					<dim>18</dim>
					<dim>75</dim>
					<dim>75</dim>
				</port>
			</output>
		</layer>
		<layer id="176" name="16391643_const" type="Const" version="opset1">
			<data element_type="f16" offset="12557" shape="" size="2"/>
			<output>
				<port id="1" precision="FP16"/>
			</output>
		</layer>
		<layer id="177" name="16401644_const" type="Const" version="opset1">
			<data element_type="f16" offset="12559" shape="" size="2"/>
			<output>
				<port id="1" precision="FP16"/>
			</output>
		</layer>
		<layer id="178" name="16411645_const" type="Const" version="opset1">
			<data element_type="f16" offset="12557" shape="" size="2"/>
			<output>
				<port id="1" precision="FP16"/>
			</output>
		</layer>
		<layer id="179" name="16421646_const" type="Const" version="opset1">
			<data element_type="f16" offset="12559" shape="" size="2"/>
			<output>
				<port id="1" precision="FP16"/>
			</output>
		</layer>
		<layer id="180" name="357/fq_input_0" type="FakeQuantize" version="opset1">
			<data levels="256"/>
			<input>
				<port id="0">
					<dim>1</dim>
					<dim>18</dim>
					<dim>75</dim>
					<dim>75</dim>
				</port>
				<port id="1"/>
				<port id="2"/>
				<port id="3"/>
				<port id="4"/>
			</input>
			<output>
				<port id="5" precision="FP16">
					<dim>1</dim>
					<dim>18</dim>
					<dim>75</dim>
					<dim>75</dim>
				</port>
			</output>
		</layer>
		<layer id="181" name="357/fq_weights_1/Convert_to_float/Cast_05403_const" type="Const" version="opset1">
			<data element_type="u8" offset="12561" shape="108,18,1,1" size="1944"/>
			<output>
				<port id="1" precision="U8">
					<dim>108</dim>
					<dim>18</dim>
					<dim>1</dim>
					<dim>1</dim>
				</port>
			</output>
		</layer>
		<layer id="182" name="357/fq_weights_1/Convert_to_float" type="Convert" version="opset1">
			<data destination_type="f16"/>
			<input>
				<port id="0">
					<dim>108</dim>
					<dim>18</dim>
					<dim>1</dim>
					<dim>1</dim>
				</port>
			</input>
			<output>
				<port id="1" precision="FP16">
					<dim>108</dim>
					<dim>18</dim>
					<dim>1</dim>
					<dim>1</dim>
				</port>
			</output>
		</layer>
		<layer id="183" name="357/fq_weights_1/Copy/out_low4683_const" type="Const" version="opset1">
			<data element_type="f16" offset="12443" shape="1" size="2"/>
			<output>
				<port id="1" precision="FP16">
					<dim>1</dim>
				</port>
			</output>
		</layer>
		<layer id="184" name="357/fq_weights_1/Copy/out_high4684_const" type="Const" version="opset1">
			<data element_type="f16" offset="7" shape="1" size="2"/>
			<output>
				<port id="1" precision="FP16">
					<dim>1</dim>
				</port>
			</output>
		</layer>
		<layer id="185" name="16511655_const" type="Const" version="opset1">
			<data element_type="f16" offset="14505" shape="108,1,1,1" size="216"/>
			<output>
				<port id="1" precision="FP16">
					<dim>108</dim>
					<dim>1</dim>
					<dim>1</dim>
					<dim>1</dim>
				</port>
			</output>
		</layer>
		<layer id="186" name="16521656_const" type="Const" version="opset1">
			<data element_type="f16" offset="14721" shape="108,1,1,1" size="216"/>
			<output>
				<port id="1" precision="FP16">
					<dim>108</dim>
					<dim>1</dim>
					<dim>1</dim>
					<dim>1</dim>
				</port>
			</output>
		</layer>
		<layer id="187" name="357/fq_weights_1" type="FakeQuantize" version="opset1">
			<data levels="255"/>
			<input>
				<port id="0">
					<dim>108</dim>
					<dim>18</dim>
					<dim>1</dim>
					<dim>1</dim>
				</port>
				<port id="1">
					<dim>1</dim>
				</port>
				<port id="2">
					<dim>1</dim>
				</port>
				<port id="3">
					<dim>108</dim>
					<dim>1</dim>
					<dim>1</dim>
					<dim>1</dim>
				</port>
				<port id="4">
					<dim>108</dim>
					<dim>1</dim>
					<dim>1</dim>
					<dim>1</dim>
				</port>
			</input>
			<output>
				<port id="5" precision="FP16">
					<dim>108</dim>
					<dim>18</dim>
					<dim>1</dim>
					<dim>1</dim>
				</port>
			</output>
		</layer>
		<layer id="188" name="357" type="Convolution" version="opset1">
			<data dilations="1,1" output_padding="0,0" pads_begin="0,0" pads_end="0,0" strides="1,1"/>
			<input>
				<port id="0">
					<dim>1</dim>
					<dim>18</dim>
					<dim>75</dim>
					<dim>75</dim>
				</port>
				<port id="1">
					<dim>108</dim>
					<dim>18</dim>
					<dim>1</dim>
					<dim>1</dim>
				</port>
			</input>
			<output>
				<port id="2" precision="FP16">
					<dim>1</dim>
					<dim>108</dim>
					<dim>75</dim>
					<dim>75</dim>
				</port>
			</output>
		</layer>
		<layer id="189" name="data_add_97429747/copy_const358_const" type="Const" version="opset1">
			<data element_type="f16" offset="14937" shape="1,108,1,1" size="216"/>
			<output>
				<port id="1" precision="FP16">
					<dim>1</dim>
					<dim>108</dim>
					<dim>1</dim>
					<dim>1</dim>
				</port>
			</output>
		</layer>
		<layer id="190" name="358/variance/Fused_Add_" type="Add" version="opset1">
			<input>
				<port id="0">
					<dim>1</dim>
					<dim>108</dim>
					<dim>75</dim>
					<dim>75</dim>
				</port>
				<port id="1">
					<dim>1</dim>
					<dim>108</dim>
					<dim>1</dim>
					<dim>1</dim>
				</port>
			</input>
			<output>
				<port id="2" precision="FP16">
					<dim>1</dim>
					<dim>108</dim>
					<dim>75</dim>
					<dim>75</dim>
				</port>
			</output>
		</layer>
		<layer id="191" name="359" type="ReLU" version="opset1">
			<input>
				<port id="0">
					<dim>1</dim>
					<dim>108</dim>
					<dim>75</dim>
					<dim>75</dim>
				</port>
			</input>
			<output>
				<port id="1" precision="FP16">
					<dim>1</dim>
					<dim>108</dim>
					<dim>75</dim>
					<dim>75</dim>
				</port>
			</output>
		</layer>
		<layer id="192" name="10291033_const" type="Const" version="opset1">
			<data element_type="f16" offset="8403" shape="1,108,1,1" size="216"/>
			<output>
				<port id="1" precision="FP16">
					<dim>1</dim>
					<dim>108</dim>
					<dim>1</dim>
					<dim>1</dim>
				</port>
			</output>
		</layer>
		<layer id="193" name="10301034_const" type="Const" version="opset1">
			<data element_type="f16" offset="15153" shape="1,108,1,1" size="216"/>
			<output>
				<port id="1" precision="FP16">
					<dim>1</dim>
					<dim>108</dim>
					<dim>1</dim>
					<dim>1</dim>
				</port>
			</output>
		</layer>
		<layer id="194" name="10311035_const" type="Const" version="opset1">
			<data element_type="f16" offset="8403" shape="1,108,1,1" size="216"/>
			<output>
				<port id="1" precision="FP16">
					<dim>1</dim>
					<dim>108</dim>
					<dim>1</dim>
					<dim>1</dim>
				</port>
			</output>
		</layer>
		<layer id="195" name="10321036_const" type="Const" version="opset1">
			<data element_type="f16" offset="15153" shape="1,108,1,1" size="216"/>
			<output>
				<port id="1" precision="FP16">
					<dim>1</dim>
					<dim>108</dim>
					<dim>1</dim>
					<dim>1</dim>
				</port>
			</output>
		</layer>
		<layer id="196" name="360/fq_input_0" type="FakeQuantize" version="opset1">
			<data levels="256"/>
			<input>
				<port id="0">
					<dim>1</dim>
					<dim>108</dim>
					<dim>75</dim>
					<dim>75</dim>
				</port>
				<port id="1">
					<dim>1</dim>
					<dim>108</dim>
					<dim>1</dim>
					<dim>1</dim>
				</port>
				<port id="2">
					<dim>1</dim>
					<dim>108</dim>
					<dim>1</dim>
					<dim>1</dim>
				</port>
				<port id="3">
					<dim>1</dim>
					<dim>108</dim>
					<dim>1</dim>
					<dim>1</dim>
				</port>
				<port id="4">
					<dim>1</dim>
					<dim>108</dim>
					<dim>1</dim>
					<dim>1</dim>
				</port>
			</input>
			<output>
				<port id="5" precision="FP16">
					<dim>1</dim>
					<dim>108</dim>
					<dim>75</dim>
					<dim>75</dim>
				</port>
			</output>
		</layer>
		<layer id="197" name="360/fq_weights_1/Convert_to_float/Cast_05391_const" type="Const" version="opset1">
			<data element_type="u8" offset="15369" shape="108,1,3,3" size="972"/>
			<output>
				<port id="1" precision="U8">
					<dim>108</dim>
					<dim>1</dim>
					<dim>3</dim>
					<dim>3</dim>
				</port>
			</output>
		</layer>
		<layer id="198" name="360/fq_weights_1/Convert_to_float" type="Convert" version="opset1">
			<data destination_type="f16"/>
			<input>
				<port id="0">
					<dim>108</dim>
					<dim>1</dim>
					<dim>3</dim>
					<dim>3</dim>
				</port>
			</input>
			<output>
				<port id="1" precision="FP16">
					<dim>108</dim>
					<dim>1</dim>
					<dim>3</dim>
					<dim>3</dim>
				</port>
			</output>
		</layer>
		<layer id="199" name="360/fq_weights_1/Copy/out_low4595_const" type="Const" version="opset1">
			<data element_type="f16" offset="12443" shape="1" size="2"/>
			<output>
				<port id="1" precision="FP16">
					<dim>1</dim>
				</port>
			</output>
		</layer>
		<layer id="200" name="360/fq_weights_1/Copy/out_high4596_const" type="Const" version="opset1">
			<data element_type="f16" offset="7" shape="1" size="2"/>
			<output>
				<port id="1" precision="FP16">
					<dim>1</dim>
				</port>
			</output>
		</layer>
		<layer id="201" name="10411045_const" type="Const" version="opset1">
			<data element_type="f16" offset="16341" shape="108,1,1,1" size="216"/>
			<output>
				<port id="1" precision="FP16">
					<dim>108</dim>
					<dim>1</dim>
					<dim>1</dim>
					<dim>1</dim>
				</port>
			</output>
		</layer>
		<layer id="202" name="10421046_const" type="Const" version="opset1">
			<data element_type="f16" offset="16557" shape="108,1,1,1" size="216"/>
			<output>
				<port id="1" precision="FP16">
					<dim>108</dim>
					<dim>1</dim>
					<dim>1</dim>
					<dim>1</dim>
				</port>
			</output>
		</layer>
		<layer id="203" name="360/fq_weights_1" type="FakeQuantize" version="opset1">
			<data levels="255"/>
			<input>
				<port id="0">
					<dim>108</dim>
					<dim>1</dim>
					<dim>3</dim>
					<dim>3</dim>
				</port>
				<port id="1">
					<dim>1</dim>
				</port>
				<port id="2">
					<dim>1</dim>
				</port>
				<port id="3">
					<dim>108</dim>
					<dim>1</dim>
					<dim>1</dim>
					<dim>1</dim>
				</port>
				<port id="4">
					<dim>108</dim>
					<dim>1</dim>
					<dim>1</dim>
					<dim>1</dim>
				</port>
			</input>
			<output>
				<port id="5" precision="FP16">
					<dim>108</dim>
					<dim>1</dim>
					<dim>3</dim>
					<dim>3</dim>
				</port>
			</output>
		</layer>
		<layer id="204" name="6096/value6098_const" type="Const" version="opset1">
			<data element_type="i64" offset="10239" shape="5" size="40"/>
			<output>
				<port id="1" precision="I64">
					<dim>5</dim>
				</port>
			</output>
		</layer>
		<layer id="205" name="6096" type="Reshape" version="opset1">
			<data special_zero="True"/>
			<input>
				<port id="0">
					<dim>108</dim>
					<dim>1</dim>
					<dim>3</dim>
					<dim>3</dim>
				</port>
				<port id="1">
					<dim>5</dim>
				</port>
			</input>
			<output>
				<port id="2" precision="FP16">
					<dim>108</dim>
					<dim>1</dim>
					<dim>1</dim>
					<dim>3</dim>
					<dim>3</dim>
				</port>
			</output>
		</layer>
		<layer id="206" name="360" type="GroupConvolution" version="opset1">
			<data dilations="1,1" output_padding="0,0" pads_begin="1,1" pads_end="1,1" strides="2,2"/>
			<input>
				<port id="0">
					<dim>1</dim>
					<dim>108</dim>
					<dim>75</dim>
					<dim>75</dim>
				</port>
				<port id="1">
					<dim>108</dim>
					<dim>1</dim>
					<dim>1</dim>
					<dim>3</dim>
					<dim>3</dim>
				</port>
			</input>
			<output>
				<port id="2" precision="FP16">
					<dim>1</dim>
					<dim>108</dim>
					<dim>38</dim>
					<dim>38</dim>
				</port>
			</output>
		</layer>
		<layer id="207" name="data_add_97509755/copy_const363_const" type="Const" version="opset1">
			<data element_type="f16" offset="16773" shape="1,108,1,1" size="216"/>
			<output>
				<port id="1" precision="FP16">
					<dim>1</dim>
					<dim>108</dim>
					<dim>1</dim>
					<dim>1</dim>
				</port>
			</output>
		</layer>
		<layer id="208" name="361/variance/Fused_Add_" type="Add" version="opset1">
			<input>
				<port id="0">
					<dim>1</dim>
					<dim>108</dim>
					<dim>38</dim>
					<dim>38</dim>
				</port>
				<port id="1">
					<dim>1</dim>
					<dim>108</dim>
					<dim>1</dim>
					<dim>1</dim>
				</port>
			</input>
			<output>
				<port id="2" precision="FP16">
					<dim>1</dim>
					<dim>108</dim>
					<dim>38</dim>
					<dim>38</dim>
				</port>
			</output>
		</layer>
		<layer id="209" name="362" type="ReLU" version="opset1">
			<input>
				<port id="0">
					<dim>1</dim>
					<dim>108</dim>
					<dim>38</dim>
					<dim>38</dim>
				</port>
			</input>
			<output>
				<port id="1" precision="FP16">
					<dim>1</dim>
					<dim>108</dim>
					<dim>38</dim>
					<dim>38</dim>
				</port>
			</output>
		</layer>
		<layer id="210" name="18991903_const" type="Const" version="opset1">
			<data element_type="f16" offset="16989" shape="" size="2"/>
			<output>
				<port id="1" precision="FP16"/>
			</output>
		</layer>
		<layer id="211" name="19001904_const" type="Const" version="opset1">
			<data element_type="f16" offset="16991" shape="" size="2"/>
			<output>
				<port id="1" precision="FP16"/>
			</output>
		</layer>
		<layer id="212" name="19011905_const" type="Const" version="opset1">
			<data element_type="f16" offset="16989" shape="" size="2"/>
			<output>
				<port id="1" precision="FP16"/>
			</output>
		</layer>
		<layer id="213" name="19021906_const" type="Const" version="opset1">
			<data element_type="f16" offset="16991" shape="" size="2"/>
			<output>
				<port id="1" precision="FP16"/>
			</output>
		</layer>
		<layer id="214" name="363/fq_input_0" type="FakeQuantize" version="opset1">
			<data levels="256"/>
			<input>
				<port id="0">
					<dim>1</dim>
					<dim>108</dim>
					<dim>38</dim>
					<dim>38</dim>
				</port>
				<port id="1"/>
				<port id="2"/>
				<port id="3"/>
				<port id="4"/>
			</input>
			<output>
				<port id="5" precision="FP16">
					<dim>1</dim>
					<dim>108</dim>
					<dim>38</dim>
					<dim>38</dim>
				</port>
			</output>
		</layer>
		<layer id="215" name="363/fq_weights_1/Convert_to_float/Cast_05393_const" type="Const" version="opset1">
			<data element_type="u8" offset="16993" shape="24,108,1,1" size="2592"/>
			<output>
				<port id="1" precision="U8">
					<dim>24</dim>
					<dim>108</dim>
					<dim>1</dim>
					<dim>1</dim>
				</port>
			</output>
		</layer>
		<layer id="216" name="363/fq_weights_1/Convert_to_float" type="Convert" version="opset1">
			<data destination_type="f16"/>
			<input>
				<port id="0">
					<dim>24</dim>
					<dim>108</dim>
					<dim>1</dim>
					<dim>1</dim>
				</port>
			</input>
			<output>
				<port id="1" precision="FP16">
					<dim>24</dim>
					<dim>108</dim>
					<dim>1</dim>
					<dim>1</dim>
				</port>
			</output>
		</layer>
		<layer id="217" name="363/fq_weights_1/Copy/out_low4395_const" type="Const" version="opset1">
			<data element_type="f16" offset="19585" shape="1" size="2"/>
			<output>
				<port id="1" precision="FP16">
					<dim>1</dim>
				</port>
			</output>
		</layer>
		<layer id="218" name="363/fq_weights_1/Copy/out_high4396_const" type="Const" version="opset1">
			<data element_type="f16" offset="7" shape="1" size="2"/>
			<output>
				<port id="1" precision="FP16">
					<dim>1</dim>
				</port>
			</output>
		</layer>
		<layer id="219" name="19111915_const" type="Const" version="opset1">
			<data element_type="f16" offset="19587" shape="24,1,1,1" size="48"/>
			<output>
				<port id="1" precision="FP16">
					<dim>24</dim>
					<dim>1</dim>
					<dim>1</dim>
					<dim>1</dim>
				</port>
			</output>
		</layer>
		<layer id="220" name="19121916_const" type="Const" version="opset1">
			<data element_type="f16" offset="19635" shape="24,1,1,1" size="48"/>
			<output>
				<port id="1" precision="FP16">
					<dim>24</dim>
					<dim>1</dim>
					<dim>1</dim>
					<dim>1</dim>
				</port>
			</output>
		</layer>
		<layer id="221" name="363/fq_weights_1" type="FakeQuantize" version="opset1">
			<data levels="255"/>
			<input>
				<port id="0">
					<dim>24</dim>
					<dim>108</dim>
					<dim>1</dim>
					<dim>1</dim>
				</port>
				<port id="1">
					<dim>1</dim>
				</port>
				<port id="2">
					<dim>1</dim>
				</port>
				<port id="3">
					<dim>24</dim>
					<dim>1</dim>
					<dim>1</dim>
					<dim>1</dim>
				</port>
				<port id="4">
					<dim>24</dim>
					<dim>1</dim>
					<dim>1</dim>
					<dim>1</dim>
				</port>
			</input>
			<output>
				<port id="5" precision="FP16">
					<dim>24</dim>
					<dim>108</dim>
					<dim>1</dim>
					<dim>1</dim>
				</port>
			</output>
		</layer>
		<layer id="222" name="363" type="Convolution" version="opset1">
			<data dilations="1,1" output_padding="0,0" pads_begin="0,0" pads_end="0,0" strides="1,1"/>
			<input>
				<port id="0">
					<dim>1</dim>
					<dim>108</dim>
					<dim>38</dim>
					<dim>38</dim>
				</port>
				<port id="1">
					<dim>24</dim>
					<dim>108</dim>
					<dim>1</dim>
					<dim>1</dim>
				</port>
			</input>
			<output>
				<port id="2" precision="FP16">
					<dim>1</dim>
					<dim>24</dim>
					<dim>38</dim>
					<dim>38</dim>
				</port>
			</output>
		</layer>
		<layer id="223" name="data_add_97589763/copy_const368_const" type="Const" version="opset1">
			<data element_type="f16" offset="19683" shape="1,24,1,1" size="48"/>
			<output>
				<port id="1" precision="FP16">
					<dim>1</dim>
					<dim>24</dim>
					<dim>1</dim>
					<dim>1</dim>
				</port>
			</output>
		</layer>
		<layer id="224" name="364/variance/Fused_Add_" type="Add" version="opset1">
			<input>
				<port id="0">
					<dim>1</dim>
					<dim>24</dim>
					<dim>38</dim>
					<dim>38</dim>
				</port>
				<port id="1">
					<dim>1</dim>
					<dim>24</dim>
					<dim>1</dim>
					<dim>1</dim>
				</port>
			</input>
			<output>
				<port id="2" precision="FP16">
					<dim>1</dim>
					<dim>24</dim>
					<dim>38</dim>
					<dim>38</dim>
				</port>
			</output>
		</layer>
		<layer id="225" name="11491153_const" type="Const" version="opset1">
			<data element_type="f16" offset="19731" shape="" size="2"/>
			<output>
				<port id="1" precision="FP16"/>
			</output>
		</layer>
		<layer id="226" name="11501154_const" type="Const" version="opset1">
			<data element_type="f16" offset="19733" shape="" size="2"/>
			<output>
				<port id="1" precision="FP16"/>
			</output>
		</layer>
		<layer id="227" name="11511155_const" type="Const" version="opset1">
			<data element_type="f16" offset="19731" shape="" size="2"/>
			<output>
				<port id="1" precision="FP16"/>
			</output>
		</layer>
		<layer id="228" name="11521156_const" type="Const" version="opset1">
			<data element_type="f16" offset="19733" shape="" size="2"/>
			<output>
				<port id="1" precision="FP16"/>
			</output>
		</layer>
		<layer id="229" name="365/fq_input_0" type="FakeQuantize" version="opset1">
			<data levels="256"/>
			<input>
				<port id="0">
					<dim>1</dim>
					<dim>24</dim>
					<dim>38</dim>
					<dim>38</dim>
				</port>
				<port id="1"/>
				<port id="2"/>
				<port id="3"/>
				<port id="4"/>
			</input>
			<output>
				<port id="5" precision="FP16">
					<dim>1</dim>
					<dim>24</dim>
					<dim>38</dim>
					<dim>38</dim>
				</port>
			</output>
		</layer>
		<layer id="230" name="365/fq_weights_1/Convert_to_float/Cast_05375_const" type="Const" version="opset1">
			<data element_type="u8" offset="19735" shape="144,24,1,1" size="3456"/>
			<output>
				<port id="1" precision="U8">
					<dim>144</dim>
					<dim>24</dim>
					<dim>1</dim>
					<dim>1</dim>
				</port>
			</output>
		</layer>
		<layer id="231" name="365/fq_weights_1/Convert_to_float" type="Convert" version="opset1">
			<data destination_type="f16"/>
			<input>
				<port id="0">
					<dim>144</dim>
					<dim>24</dim>
					<dim>1</dim>
					<dim>1</dim>
				</port>
			</input>
			<output>
				<port id="1" precision="FP16">
					<dim>144</dim>
					<dim>24</dim>
					<dim>1</dim>
					<dim>1</dim>
				</port>
			</output>
		</layer>
		<layer id="232" name="365/fq_weights_1/Copy/out_low4331_const" type="Const" version="opset1">
			<data element_type="f16" offset="19585" shape="1" size="2"/>
			<output>
				<port id="1" precision="FP16">
					<dim>1</dim>
				</port>
			</output>
		</layer>
		<layer id="233" name="365/fq_weights_1/Copy/out_high4332_const" type="Const" version="opset1">
			<data element_type="f16" offset="7" shape="1" size="2"/>
			<output>
				<port id="1" precision="FP16">
					<dim>1</dim>
				</port>
			</output>
		</layer>
		<layer id="234" name="11611165_const" type="Const" version="opset1">
			<data element_type="f16" offset="23191" shape="144,1,1,1" size="288"/>
			<output>
				<port id="1" precision="FP16">
					<dim>144</dim>
					<dim>1</dim>
					<dim>1</dim>
					<dim>1</dim>
				</port>
			</output>
		</layer>
		<layer id="235" name="11621166_const" type="Const" version="opset1">
			<data element_type="f16" offset="23479" shape="144,1,1,1" size="288"/>
			<output>
				<port id="1" precision="FP16">
					<dim>144</dim>
					<dim>1</dim>
					<dim>1</dim>
					<dim>1</dim>
				</port>
			</output>
		</layer>
		<layer id="236" name="365/fq_weights_1" type="FakeQuantize" version="opset1">
			<data levels="255"/>
			<input>
				<port id="0">
					<dim>144</dim>
					<dim>24</dim>
					<dim>1</dim>
					<dim>1</dim>
				</port>
				<port id="1">
					<dim>1</dim>
				</port>
				<port id="2">
					<dim>1</dim>
				</port>
				<port id="3">
					<dim>144</dim>
					<dim>1</dim>
					<dim>1</dim>
					<dim>1</dim>
				</port>
				<port id="4">
					<dim>144</dim>
					<dim>1</dim>
					<dim>1</dim>
					<dim>1</dim>
				</port>
			</input>
			<output>
				<port id="5" precision="FP16">
					<dim>144</dim>
					<dim>24</dim>
					<dim>1</dim>
					<dim>1</dim>
				</port>
			</output>
		</layer>
		<layer id="237" name="365" type="Convolution" version="opset1">
			<data dilations="1,1" output_padding="0,0" pads_begin="0,0" pads_end="0,0" strides="1,1"/>
			<input>
				<port id="0">
					<dim>1</dim>
					<dim>24</dim>
					<dim>38</dim>
					<dim>38</dim>
				</port>
				<port id="1">
					<dim>144</dim>
					<dim>24</dim>
					<dim>1</dim>
					<dim>1</dim>
				</port>
			</input>
			<output>
				<port id="2" precision="FP16">
					<dim>1</dim>
					<dim>144</dim>
					<dim>38</dim>
					<dim>38</dim>
				</port>
			</output>
		</layer>
		<layer id="238" name="data_add_97669771/copy_const372_const" type="Const" version="opset1">
			<data element_type="f16" offset="23767" shape="1,144,1,1" size="288"/>
			<output>
				<port id="1" precision="FP16">
					<dim>1</dim>
					<dim>144</dim>
					<dim>1</dim>
					<dim>1</dim>
				</port>
			</output>
		</layer>
		<layer id="239" name="366/variance/Fused_Add_" type="Add" version="opset1">
			<input>
				<port id="0">
					<dim>1</dim>
					<dim>144</dim>
					<dim>38</dim>
					<dim>38</dim>
				</port>
				<port id="1">
					<dim>1</dim>
					<dim>144</dim>
					<dim>1</dim>
					<dim>1</dim>
				</port>
			</input>
			<output>
				<port id="2" precision="FP16">
					<dim>1</dim>
					<dim>144</dim>
					<dim>38</dim>
					<dim>38</dim>
				</port>
			</output>
		</layer>
		<layer id="240" name="367" type="ReLU" version="opset1">
			<input>
				<port id="0">
					<dim>1</dim>
					<dim>144</dim>
					<dim>38</dim>
					<dim>38</dim>
				</port>
			</input>
			<output>
				<port id="1" precision="FP16">
					<dim>1</dim>
					<dim>144</dim>
					<dim>38</dim>
					<dim>38</dim>
				</port>
			</output>
		</layer>
		<layer id="241" name="15391543_const" type="Const" version="opset1">
			<data element_type="f16" offset="24055" shape="1,144,1,1" size="288"/>
			<output>
				<port id="1" precision="FP16">
					<dim>1</dim>
					<dim>144</dim>
					<dim>1</dim>
					<dim>1</dim>
				</port>
			</output>
		</layer>
		<layer id="242" name="15401544_const" type="Const" version="opset1">
			<data element_type="f16" offset="24343" shape="1,144,1,1" size="288"/>
			<output>
				<port id="1" precision="FP16">
					<dim>1</dim>
					<dim>144</dim>
					<dim>1</dim>
					<dim>1</dim>
				</port>
			</output>
		</layer>
		<layer id="243" name="15411545_const" type="Const" version="opset1">
			<data element_type="f16" offset="24055" shape="1,144,1,1" size="288"/>
			<output>
				<port id="1" precision="FP16">
					<dim>1</dim>
					<dim>144</dim>
					<dim>1</dim>
					<dim>1</dim>
				</port>
			</output>
		</layer>
		<layer id="244" name="15421546_const" type="Const" version="opset1">
			<data element_type="f16" offset="24343" shape="1,144,1,1" size="288"/>
			<output>
				<port id="1" precision="FP16">
					<dim>1</dim>
					<dim>144</dim>
					<dim>1</dim>
					<dim>1</dim>
				</port>
			</output>
		</layer>
		<layer id="245" name="368/fq_input_0" type="FakeQuantize" version="opset1">
			<data levels="256"/>
			<input>
				<port id="0">
					<dim>1</dim>
					<dim>144</dim>
					<dim>38</dim>
					<dim>38</dim>
				</port>
				<port id="1">
					<dim>1</dim>
					<dim>144</dim>
					<dim>1</dim>
					<dim>1</dim>
				</port>
				<port id="2">
					<dim>1</dim>
					<dim>144</dim>
					<dim>1</dim>
					<dim>1</dim>
				</port>
				<port id="3">
					<dim>1</dim>
					<dim>144</dim>
					<dim>1</dim>
					<dim>1</dim>
				</port>
				<port id="4">
					<dim>1</dim>
					<dim>144</dim>
					<dim>1</dim>
					<dim>1</dim>
				</port>
			</input>
			<output>
				<port id="5" precision="FP16">
					<dim>1</dim>
					<dim>144</dim>
					<dim>38</dim>
					<dim>38</dim>
				</port>
			</output>
		</layer>
		<layer id="246" name="368/fq_weights_1/Convert_to_float/Cast_05395_const" type="Const" version="opset1">
			<data element_type="u8" offset="24631" shape="144,1,3,3" size="1296"/>
			<output>
				<port id="1" precision="U8">
					<dim>144</dim>
					<dim>1</dim>
					<dim>3</dim>
					<dim>3</dim>
				</port>
			</output>
		</layer>
		<layer id="247" name="368/fq_weights_1/Convert_to_float" type="Convert" version="opset1">
			<data destination_type="f16"/>
			<input>
				<port id="0">
					<dim>144</dim>
					<dim>1</dim>
					<dim>3</dim>
					<dim>3</dim>
				</port>
			</input>
			<output>
				<port id="1" precision="FP16">
					<dim>144</dim>
					<dim>1</dim>
					<dim>3</dim>
					<dim>3</dim>
				</port>
			</output>
		</layer>
		<layer id="248" name="368/fq_weights_1/Copy/out_low4531_const" type="Const" version="opset1">
			<data element_type="f16" offset="19585" shape="1" size="2"/>
			<output>
				<port id="1" precision="FP16">
					<dim>1</dim>
				</port>
			</output>
		</layer>
		<layer id="249" name="368/fq_weights_1/Copy/out_high4532_const" type="Const" version="opset1">
			<data element_type="f16" offset="7" shape="1" size="2"/>
			<output>
				<port id="1" precision="FP16">
					<dim>1</dim>
				</port>
			</output>
		</layer>
		<layer id="250" name="15511555_const" type="Const" version="opset1">
			<data element_type="f16" offset="25927" shape="144,1,1,1" size="288"/>
			<output>
				<port id="1" precision="FP16">
					<dim>144</dim>
					<dim>1</dim>
					<dim>1</dim>
					<dim>1</dim>
				</port>
			</output>
		</layer>
		<layer id="251" name="15521556_const" type="Const" version="opset1">
			<data element_type="f16" offset="26215" shape="144,1,1,1" size="288"/>
			<output>
				<port id="1" precision="FP16">
					<dim>144</dim>
					<dim>1</dim>
					<dim>1</dim>
					<dim>1</dim>
				</port>
			</output>
		</layer>
		<layer id="252" name="368/fq_weights_1" type="FakeQuantize" version="opset1">
			<data levels="255"/>
			<input>
				<port id="0">
					<dim>144</dim>
					<dim>1</dim>
					<dim>3</dim>
					<dim>3</dim>
				</port>
				<port id="1">
					<dim>1</dim>
				</port>
				<port id="2">
					<dim>1</dim>
				</port>
				<port id="3">
					<dim>144</dim>
					<dim>1</dim>
					<dim>1</dim>
					<dim>1</dim>
				</port>
				<port id="4">
					<dim>144</dim>
					<dim>1</dim>
					<dim>1</dim>
					<dim>1</dim>
				</port>
			</input>
			<output>
				<port id="5" precision="FP16">
					<dim>144</dim>
					<dim>1</dim>
					<dim>3</dim>
					<dim>3</dim>
				</port>
			</output>
		</layer>
		<layer id="253" name="6116/value6118_const" type="Const" version="opset1">
			<data element_type="i64" offset="26503" shape="5" size="40"/>
			<output>
				<port id="1" precision="I64">
					<dim>5</dim>
				</port>
			</output>
		</layer>
		<layer id="254" name="6116" type="Reshape" version="opset1">
			<data special_zero="True"/>
			<input>
				<port id="0">
					<dim>144</dim>
					<dim>1</dim>
					<dim>3</dim>
					<dim>3</dim>
				</port>
				<port id="1">
					<dim>5</dim>
				</port>
			</input>
			<output>
				<port id="2" precision="FP16">
					<dim>144</dim>
					<dim>1</dim>
					<dim>1</dim>
					<dim>3</dim>
					<dim>3</dim>
				</port>
			</output>
		</layer>
		<layer id="255" name="368" type="GroupConvolution" version="opset1">
			<data dilations="1,1" output_padding="0,0" pads_begin="1,1" pads_end="1,1" strides="1,1"/>
			<input>
				<port id="0">
					<dim>1</dim>
					<dim>144</dim>
					<dim>38</dim>
					<dim>38</dim>
				</port>
				<port id="1">
					<dim>144</dim>
					<dim>1</dim>
					<dim>1</dim>
					<dim>3</dim>
					<dim>3</dim>
				</port>
			</input>
			<output>
				<port id="2" precision="FP16">
					<dim>1</dim>
					<dim>144</dim>
					<dim>38</dim>
					<dim>38</dim>
				</port>
			</output>
		</layer>
		<layer id="256" name="data_add_97749779/copy_const377_const" type="Const" version="opset1">
			<data element_type="f16" offset="26543" shape="1,144,1,1" size="288"/>
			<output>
				<port id="1" precision="FP16">
					<dim>1</dim>
					<dim>144</dim>
					<dim>1</dim>
					<dim>1</dim>
				</port>
			</output>
		</layer>
		<layer id="257" name="369/variance/Fused_Add_" type="Add" version="opset1">
			<input>
				<port id="0">
					<dim>1</dim>
					<dim>144</dim>
					<dim>38</dim>
					<dim>38</dim>
				</port>
				<port id="1">
					<dim>1</dim>
					<dim>144</dim>
					<dim>1</dim>
					<dim>1</dim>
				</port>
			</input>
			<output>
				<port id="2" precision="FP16">
					<dim>1</dim>
					<dim>144</dim>
					<dim>38</dim>
					<dim>38</dim>
				</port>
			</output>
		</layer>
		<layer id="258" name="370" type="ReLU" version="opset1">
			<input>
				<port id="0">
					<dim>1</dim>
					<dim>144</dim>
					<dim>38</dim>
					<dim>38</dim>
				</port>
			</input>
			<output>
				<port id="1" precision="FP16">
					<dim>1</dim>
					<dim>144</dim>
					<dim>38</dim>
					<dim>38</dim>
				</port>
			</output>
		</layer>
		<layer id="259" name="11091113_const" type="Const" version="opset1">
			<data element_type="f16" offset="26831" shape="" size="2"/>
			<output>
				<port id="1" precision="FP16"/>
			</output>
		</layer>
		<layer id="260" name="11101114_const" type="Const" version="opset1">
			<data element_type="f16" offset="26833" shape="" size="2"/>
			<output>
				<port id="1" precision="FP16"/>
			</output>
		</layer>
		<layer id="261" name="11111115_const" type="Const" version="opset1">
			<data element_type="f16" offset="26831" shape="" size="2"/>
			<output>
				<port id="1" precision="FP16"/>
			</output>
		</layer>
		<layer id="262" name="11121116_const" type="Const" version="opset1">
			<data element_type="f16" offset="26833" shape="" size="2"/>
			<output>
				<port id="1" precision="FP16"/>
			</output>
		</layer>
		<layer id="263" name="371/fq_input_0" type="FakeQuantize" version="opset1">
			<data levels="256"/>
			<input>
				<port id="0">
					<dim>1</dim>
					<dim>144</dim>
					<dim>38</dim>
					<dim>38</dim>
				</port>
				<port id="1"/>
				<port id="2"/>
				<port id="3"/>
				<port id="4"/>
			</input>
			<output>
				<port id="5" precision="FP16">
					<dim>1</dim>
					<dim>144</dim>
					<dim>38</dim>
					<dim>38</dim>
				</port>
			</output>
		</layer>
		<layer id="264" name="371/fq_weights_1/Convert_to_float/Cast_05431_const" type="Const" version="opset1">
			<data element_type="u8" offset="26835" shape="24,144,1,1" size="3456"/>
			<output>
				<port id="1" precision="U8">
					<dim>24</dim>
					<dim>144</dim>
					<dim>1</dim>
					<dim>1</dim>
				</port>
			</output>
		</layer>
		<layer id="265" name="371/fq_weights_1/Convert_to_float" type="Convert" version="opset1">
			<data destination_type="f16"/>
			<input>
				<port id="0">
					<dim>24</dim>
					<dim>144</dim>
					<dim>1</dim>
					<dim>1</dim>
				</port>
			</input>
			<output>
				<port id="1" precision="FP16">
					<dim>24</dim>
					<dim>144</dim>
					<dim>1</dim>
					<dim>1</dim>
				</port>
			</output>
		</layer>
		<layer id="266" name="371/fq_weights_1/Copy/out_low4419_const" type="Const" version="opset1">
			<data element_type="f16" offset="30291" shape="1" size="2"/>
			<output>
				<port id="1" precision="FP16">
					<dim>1</dim>
				</port>
			</output>
		</layer>
		<layer id="267" name="371/fq_weights_1/Copy/out_high4420_const" type="Const" version="opset1">
			<data element_type="f16" offset="7" shape="1" size="2"/>
			<output>
				<port id="1" precision="FP16">
					<dim>1</dim>
				</port>
			</output>
		</layer>
		<layer id="268" name="11211125_const" type="Const" version="opset1">
			<data element_type="f16" offset="30293" shape="24,1,1,1" size="48"/>
			<output>
				<port id="1" precision="FP16">
					<dim>24</dim>
					<dim>1</dim>
					<dim>1</dim>
					<dim>1</dim>
				</port>
			</output>
		</layer>
		<layer id="269" name="11221126_const" type="Const" version="opset1">
			<data element_type="f16" offset="30341" shape="24,1,1,1" size="48"/>
			<output>
				<port id="1" precision="FP16">
					<dim>24</dim>
					<dim>1</dim>
					<dim>1</dim>
					<dim>1</dim>
				</port>
			</output>
		</layer>
		<layer id="270" name="371/fq_weights_1" type="FakeQuantize" version="opset1">
			<data levels="255"/>
			<input>
				<port id="0">
					<dim>24</dim>
					<dim>144</dim>
					<dim>1</dim>
					<dim>1</dim>
				</port>
				<port id="1">
					<dim>1</dim>
				</port>
				<port id="2">
					<dim>1</dim>
				</port>
				<port id="3">
					<dim>24</dim>
					<dim>1</dim>
					<dim>1</dim>
					<dim>1</dim>
				</port>
				<port id="4">
					<dim>24</dim>
					<dim>1</dim>
					<dim>1</dim>
					<dim>1</dim>
				</port>
			</input>
			<output>
				<port id="5" precision="FP16">
					<dim>24</dim>
					<dim>144</dim>
					<dim>1</dim>
					<dim>1</dim>
				</port>
			</output>
		</layer>
		<layer id="271" name="371" type="Convolution" version="opset1">
			<data dilations="1,1" output_padding="0,0" pads_begin="0,0" pads_end="0,0" strides="1,1"/>
			<input>
				<port id="0">
					<dim>1</dim>
					<dim>144</dim>
					<dim>38</dim>
					<dim>38</dim>
				</port>
				<port id="1">
					<dim>24</dim>
					<dim>144</dim>
					<dim>1</dim>
					<dim>1</dim>
				</port>
			</input>
			<output>
				<port id="2" precision="FP16">
					<dim>1</dim>
					<dim>24</dim>
					<dim>38</dim>
					<dim>38</dim>
				</port>
			</output>
		</layer>
		<layer id="272" name="data_add_97829787/copy_const382_const" type="Const" version="opset1">
			<data element_type="f16" offset="30389" shape="1,24,1,1" size="48"/>
			<output>
				<port id="1" precision="FP16">
					<dim>1</dim>
					<dim>24</dim>
					<dim>1</dim>
					<dim>1</dim>
				</port>
			</output>
		</layer>
		<layer id="273" name="372/variance/Fused_Add_" type="Add" version="opset1">
			<input>
				<port id="0">
					<dim>1</dim>
					<dim>24</dim>
					<dim>38</dim>
					<dim>38</dim>
				</port>
				<port id="1">
					<dim>1</dim>
					<dim>24</dim>
					<dim>1</dim>
					<dim>1</dim>
				</port>
			</input>
			<output>
				<port id="2" precision="FP16">
					<dim>1</dim>
					<dim>24</dim>
					<dim>38</dim>
					<dim>38</dim>
				</port>
			</output>
		</layer>
		<layer id="274" name="19891993_const" type="Const" version="opset1">
			<data element_type="f16" offset="30437" shape="" size="2"/>
			<output>
				<port id="1" precision="FP16"/>
			</output>
		</layer>
		<layer id="275" name="19901994_const" type="Const" version="opset1">
			<data element_type="f16" offset="30439" shape="" size="2"/>
			<output>
				<port id="1" precision="FP16"/>
			</output>
		</layer>
		<layer id="276" name="19911995_const" type="Const" version="opset1">
			<data element_type="f16" offset="30437" shape="" size="2"/>
			<output>
				<port id="1" precision="FP16"/>
			</output>
		</layer>
		<layer id="277" name="19921996_const" type="Const" version="opset1">
			<data element_type="f16" offset="30439" shape="" size="2"/>
			<output>
				<port id="1" precision="FP16"/>
			</output>
		</layer>
		<layer id="278" name="373/fq_input_1" type="FakeQuantize" version="opset1">
			<data levels="256"/>
			<input>
				<port id="0">
					<dim>1</dim>
					<dim>24</dim>
					<dim>38</dim>
					<dim>38</dim>
				</port>
				<port id="1"/>
				<port id="2"/>
				<port id="3"/>
				<port id="4"/>
			</input>
			<output>
				<port id="5" precision="FP16">
					<dim>1</dim>
					<dim>24</dim>
					<dim>38</dim>
					<dim>38</dim>
				</port>
			</output>
		</layer>
		<layer id="279" name="373" type="Add" version="opset1">
			<input>
				<port id="0">
					<dim>1</dim>
					<dim>24</dim>
					<dim>38</dim>
					<dim>38</dim>
				</port>
				<port id="1">
					<dim>1</dim>
					<dim>24</dim>
					<dim>38</dim>
					<dim>38</dim>
				</port>
			</input>
			<output>
				<port id="2" precision="FP16">
					<dim>1</dim>
					<dim>24</dim>
					<dim>38</dim>
					<dim>38</dim>
				</port>
			</output>
		</layer>
		<layer id="280" name="18791883_const" type="Const" version="opset1">
			<data element_type="f16" offset="30441" shape="" size="2"/>
			<output>
				<port id="1" precision="FP16"/>
			</output>
		</layer>
		<layer id="281" name="18801884_const" type="Const" version="opset1">
			<data element_type="f16" offset="30443" shape="" size="2"/>
			<output>
				<port id="1" precision="FP16"/>
			</output>
		</layer>
		<layer id="282" name="18811885_const" type="Const" version="opset1">
			<data element_type="f16" offset="30441" shape="" size="2"/>
			<output>
				<port id="1" precision="FP16"/>
			</output>
		</layer>
		<layer id="283" name="18821886_const" type="Const" version="opset1">
			<data element_type="f16" offset="30443" shape="" size="2"/>
			<output>
				<port id="1" precision="FP16"/>
			</output>
		</layer>
		<layer id="284" name="374/fq_input_0" type="FakeQuantize" version="opset1">
			<data levels="256"/>
			<input>
				<port id="0">
					<dim>1</dim>
					<dim>24</dim>
					<dim>38</dim>
					<dim>38</dim>
				</port>
				<port id="1"/>
				<port id="2"/>
				<port id="3"/>
				<port id="4"/>
			</input>
			<output>
				<port id="5" precision="FP16">
					<dim>1</dim>
					<dim>24</dim>
					<dim>38</dim>
					<dim>38</dim>
				</port>
			</output>
		</layer>
		<layer id="285" name="374/fq_weights_1/Convert_to_float/Cast_05337_const" type="Const" version="opset1">
			<data element_type="u8" offset="30445" shape="144,24,1,1" size="3456"/>
			<output>
				<port id="1" precision="U8">
					<dim>144</dim>
					<dim>24</dim>
					<dim>1</dim>
					<dim>1</dim>
				</port>
			</output>
		</layer>
		<layer id="286" name="374/fq_weights_1/Convert_to_float" type="Convert" version="opset1">
			<data destination_type="f16"/>
			<input>
				<port id="0">
					<dim>144</dim>
					<dim>24</dim>
					<dim>1</dim>
					<dim>1</dim>
				</port>
			</input>
			<output>
				<port id="1" precision="FP16">
					<dim>144</dim>
					<dim>24</dim>
					<dim>1</dim>
					<dim>1</dim>
				</port>
			</output>
		</layer>
		<layer id="287" name="374/fq_weights_1/Copy/out_low4475_const" type="Const" version="opset1">
			<data element_type="f16" offset="30291" shape="1" size="2"/>
			<output>
				<port id="1" precision="FP16">
					<dim>1</dim>
				</port>
			</output>
		</layer>
		<layer id="288" name="374/fq_weights_1/Copy/out_high4476_const" type="Const" version="opset1">
			<data element_type="f16" offset="7" shape="1" size="2"/>
			<output>
				<port id="1" precision="FP16">
					<dim>1</dim>
				</port>
			</output>
		</layer>
		<layer id="289" name="18911895_const" type="Const" version="opset1">
			<data element_type="f16" offset="33901" shape="144,1,1,1" size="288"/>
			<output>
				<port id="1" precision="FP16">
					<dim>144</dim>
					<dim>1</dim>
					<dim>1</dim>
					<dim>1</dim>
				</port>
			</output>
		</layer>
		<layer id="290" name="18921896_const" type="Const" version="opset1">
			<data element_type="f16" offset="34189" shape="144,1,1,1" size="288"/>
			<output>
				<port id="1" precision="FP16">
					<dim>144</dim>
					<dim>1</dim>
					<dim>1</dim>
					<dim>1</dim>
				</port>
			</output>
		</layer>
		<layer id="291" name="374/fq_weights_1" type="FakeQuantize" version="opset1">
			<data levels="255"/>
			<input>
				<port id="0">
					<dim>144</dim>
					<dim>24</dim>
					<dim>1</dim>
					<dim>1</dim>
				</port>
				<port id="1">
					<dim>1</dim>
				</port>
				<port id="2">
					<dim>1</dim>
				</port>
				<port id="3">
					<dim>144</dim>
					<dim>1</dim>
					<dim>1</dim>
					<dim>1</dim>
				</port>
				<port id="4">
					<dim>144</dim>
					<dim>1</dim>
					<dim>1</dim>
					<dim>1</dim>
				</port>
			</input>
			<output>
				<port id="5" precision="FP16">
					<dim>144</dim>
					<dim>24</dim>
					<dim>1</dim>
					<dim>1</dim>
				</port>
			</output>
		</layer>
		<layer id="292" name="374" type="Convolution" version="opset1">
			<data dilations="1,1" output_padding="0,0" pads_begin="0,0" pads_end="0,0" strides="1,1"/>
			<input>
				<port id="0">
					<dim>1</dim>
					<dim>24</dim>
					<dim>38</dim>
					<dim>38</dim>
				</port>
				<port id="1">
					<dim>144</dim>
					<dim>24</dim>
					<dim>1</dim>
					<dim>1</dim>
				</port>
			</input>
			<output>
				<port id="2" precision="FP16">
					<dim>1</dim>
					<dim>144</dim>
					<dim>38</dim>
					<dim>38</dim>
				</port>
			</output>
		</layer>
		<layer id="293" name="data_add_97909795/copy_const387_const" type="Const" version="opset1">
			<data element_type="f16" offset="34477" shape="1,144,1,1" size="288"/>
			<output>
				<port id="1" precision="FP16">
					<dim>1</dim>
					<dim>144</dim>
					<dim>1</dim>
					<dim>1</dim>
				</port>
			</output>
		</layer>
		<layer id="294" name="375/variance/Fused_Add_" type="Add" version="opset1">
			<input>
				<port id="0">
					<dim>1</dim>
					<dim>144</dim>
					<dim>38</dim>
					<dim>38</dim>
				</port>
				<port id="1">
					<dim>1</dim>
					<dim>144</dim>
					<dim>1</dim>
					<dim>1</dim>
				</port>
			</input>
			<output>
				<port id="2" precision="FP16">
					<dim>1</dim>
					<dim>144</dim>
					<dim>38</dim>
					<dim>38</dim>
				</port>
			</output>
		</layer>
		<layer id="295" name="376" type="ReLU" version="opset1">
			<input>
				<port id="0">
					<dim>1</dim>
					<dim>144</dim>
					<dim>38</dim>
					<dim>38</dim>
				</port>
			</input>
			<output>
				<port id="1" precision="FP16">
					<dim>1</dim>
					<dim>144</dim>
					<dim>38</dim>
					<dim>38</dim>
				</port>
			</output>
		</layer>
		<layer id="296" name="14091413_const" type="Const" version="opset1">
			<data element_type="f16" offset="24055" shape="1,144,1,1" size="288"/>
			<output>
				<port id="1" precision="FP16">
					<dim>1</dim>
					<dim>144</dim>
					<dim>1</dim>
					<dim>1</dim>
				</port>
			</output>
		</layer>
		<layer id="297" name="14101414_const" type="Const" version="opset1">
			<data element_type="f16" offset="34765" shape="1,144,1,1" size="288"/>
			<output>
				<port id="1" precision="FP16">
					<dim>1</dim>
					<dim>144</dim>
					<dim>1</dim>
					<dim>1</dim>
				</port>
			</output>
		</layer>
		<layer id="298" name="14111415_const" type="Const" version="opset1">
			<data element_type="f16" offset="24055" shape="1,144,1,1" size="288"/>
			<output>
				<port id="1" precision="FP16">
					<dim>1</dim>
					<dim>144</dim>
					<dim>1</dim>
					<dim>1</dim>
				</port>
			</output>
		</layer>
		<layer id="299" name="14121416_const" type="Const" version="opset1">
			<data element_type="f16" offset="34765" shape="1,144,1,1" size="288"/>
			<output>
				<port id="1" precision="FP16">
					<dim>1</dim>
					<dim>144</dim>
					<dim>1</dim>
					<dim>1</dim>
				</port>
			</output>
		</layer>
		<layer id="300" name="377/fq_input_0" type="FakeQuantize" version="opset1">
			<data levels="256"/>
			<input>
				<port id="0">
					<dim>1</dim>
					<dim>144</dim>
					<dim>38</dim>
					<dim>38</dim>
				</port>
				<port id="1">
					<dim>1</dim>
					<dim>144</dim>
					<dim>1</dim>
					<dim>1</dim>
				</port>
				<port id="2">
					<dim>1</dim>
					<dim>144</dim>
					<dim>1</dim>
					<dim>1</dim>
				</port>
				<port id="3">
					<dim>1</dim>
					<dim>144</dim>
					<dim>1</dim>
					<dim>1</dim>
				</port>
				<port id="4">
					<dim>1</dim>
					<dim>144</dim>
					<dim>1</dim>
					<dim>1</dim>
				</port>
			</input>
			<output>
				<port id="5" precision="FP16">
					<dim>1</dim>
					<dim>144</dim>
					<dim>38</dim>
					<dim>38</dim>
				</port>
			</output>
		</layer>
		<layer id="301" name="377/fq_weights_1/Convert_to_float/Cast_05399_const" type="Const" version="opset1">
			<data element_type="u8" offset="35053" shape="144,1,3,3" size="1296"/>
			<output>
				<port id="1" precision="U8">
					<dim>144</dim>
					<dim>1</dim>
					<dim>3</dim>
					<dim>3</dim>
				</port>
			</output>
		</layer>
		<layer id="302" name="377/fq_weights_1/Convert_to_float" type="Convert" version="opset1">
			<data destination_type="f16"/>
			<input>
				<port id="0">
					<dim>144</dim>
					<dim>1</dim>
					<dim>3</dim>
					<dim>3</dim>
				</port>
			</input>
			<output>
				<port id="1" precision="FP16">
					<dim>144</dim>
					<dim>1</dim>
					<dim>3</dim>
					<dim>3</dim>
				</port>
			</output>
		</layer>
		<layer id="303" name="377/fq_weights_1/Copy/out_low4587_const" type="Const" version="opset1">
			<data element_type="f16" offset="30291" shape="1" size="2"/>
			<output>
				<port id="1" precision="FP16">
					<dim>1</dim>
				</port>
			</output>
		</layer>
		<layer id="304" name="377/fq_weights_1/Copy/out_high4588_const" type="Const" version="opset1">
			<data element_type="f16" offset="7" shape="1" size="2"/>
			<output>
				<port id="1" precision="FP16">
					<dim>1</dim>
				</port>
			</output>
		</layer>
		<layer id="305" name="14211425_const" type="Const" version="opset1">
			<data element_type="f16" offset="36349" shape="144,1,1,1" size="288"/>
			<output>
				<port id="1" precision="FP16">
					<dim>144</dim>
					<dim>1</dim>
					<dim>1</dim>
					<dim>1</dim>
				</port>
			</output>
		</layer>
		<layer id="306" name="14221426_const" type="Const" version="opset1">
			<data element_type="f16" offset="36637" shape="144,1,1,1" size="288"/>
			<output>
				<port id="1" precision="FP16">
					<dim>144</dim>
					<dim>1</dim>
					<dim>1</dim>
					<dim>1</dim>
				</port>
			</output>
		</layer>
		<layer id="307" name="377/fq_weights_1" type="FakeQuantize" version="opset1">
			<data levels="255"/>
			<input>
				<port id="0">
					<dim>144</dim>
					<dim>1</dim>
					<dim>3</dim>
					<dim>3</dim>
				</port>
				<port id="1">
					<dim>1</dim>
				</port>
				<port id="2">
					<dim>1</dim>
				</port>
				<port id="3">
					<dim>144</dim>
					<dim>1</dim>
					<dim>1</dim>
					<dim>1</dim>
				</port>
				<port id="4">
					<dim>144</dim>
					<dim>1</dim>
					<dim>1</dim>
					<dim>1</dim>
				</port>
			</input>
			<output>
				<port id="5" precision="FP16">
					<dim>144</dim>
					<dim>1</dim>
					<dim>3</dim>
					<dim>3</dim>
				</port>
			</output>
		</layer>
		<layer id="308" name="6076/value6078_const" type="Const" version="opset1">
			<data element_type="i64" offset="26503" shape="5" size="40"/>
			<output>
				<port id="1" precision="I64">
					<dim>5</dim>
				</port>
			</output>
		</layer>
		<layer id="309" name="6076" type="Reshape" version="opset1">
			<data special_zero="True"/>
			<input>
				<port id="0">
					<dim>144</dim>
					<dim>1</dim>
					<dim>3</dim>
					<dim>3</dim>
				</port>
				<port id="1">
					<dim>5</dim>
				</port>
			</input>
			<output>
				<port id="2" precision="FP16">
					<dim>144</dim>
					<dim>1</dim>
					<dim>1</dim>
					<dim>3</dim>
					<dim>3</dim>
				</port>
			</output>
		</layer>
		<layer id="310" name="377" type="GroupConvolution" version="opset1">
			<data dilations="1,1" output_padding="0,0" pads_begin="1,1" pads_end="1,1" strides="1,1"/>
			<input>
				<port id="0">
					<dim>1</dim>
					<dim>144</dim>
					<dim>38</dim>
					<dim>38</dim>
				</port>
				<port id="1">
					<dim>144</dim>
					<dim>1</dim>
					<dim>1</dim>
					<dim>3</dim>
					<dim>3</dim>
				</port>
			</input>
			<output>
				<port id="2" precision="FP16">
					<dim>1</dim>
					<dim>144</dim>
					<dim>38</dim>
					<dim>38</dim>
				</port>
			</output>
		</layer>
		<layer id="311" name="data_add_97989803/copy_const392_const" type="Const" version="opset1">
			<data element_type="f16" offset="36925" shape="1,144,1,1" size="288"/>
			<output>
				<port id="1" precision="FP16">
					<dim>1</dim>
					<dim>144</dim>
					<dim>1</dim>
					<dim>1</dim>
				</port>
			</output>
		</layer>
		<layer id="312" name="378/variance/Fused_Add_" type="Add" version="opset1">
			<input>
				<port id="0">
					<dim>1</dim>
					<dim>144</dim>
					<dim>38</dim>
					<dim>38</dim>
				</port>
				<port id="1">
					<dim>1</dim>
					<dim>144</dim>
					<dim>1</dim>
					<dim>1</dim>
				</port>
			</input>
			<output>
				<port id="2" precision="FP16">
					<dim>1</dim>
					<dim>144</dim>
					<dim>38</dim>
					<dim>38</dim>
				</port>
			</output>
		</layer>
		<layer id="313" name="379" type="ReLU" version="opset1">
			<input>
				<port id="0">
					<dim>1</dim>
					<dim>144</dim>
					<dim>38</dim>
					<dim>38</dim>
				</port>
			</input>
			<output>
				<port id="1" precision="FP16">
					<dim>1</dim>
					<dim>144</dim>
					<dim>38</dim>
					<dim>38</dim>
				</port>
			</output>
		</layer>
		<layer id="314" name="15591563_const" type="Const" version="opset1">
			<data element_type="f16" offset="37213" shape="" size="2"/>
			<output>
				<port id="1" precision="FP16"/>
			</output>
		</layer>
		<layer id="315" name="15601564_const" type="Const" version="opset1">
			<data element_type="f16" offset="37215" shape="" size="2"/>
			<output>
				<port id="1" precision="FP16"/>
			</output>
		</layer>
		<layer id="316" name="15611565_const" type="Const" version="opset1">
			<data element_type="f16" offset="37213" shape="" size="2"/>
			<output>
				<port id="1" precision="FP16"/>
			</output>
		</layer>
		<layer id="317" name="15621566_const" type="Const" version="opset1">
			<data element_type="f16" offset="37215" shape="" size="2"/>
			<output>
				<port id="1" precision="FP16"/>
			</output>
		</layer>
		<layer id="318" name="380/fq_input_0" type="FakeQuantize" version="opset1">
			<data levels="256"/>
			<input>
				<port id="0">
					<dim>1</dim>
					<dim>144</dim>
					<dim>38</dim>
					<dim>38</dim>
				</port>
				<port id="1"/>
				<port id="2"/>
				<port id="3"/>
				<port id="4"/>
			</input>
			<output>
				<port id="5" precision="FP16">
					<dim>1</dim>
					<dim>144</dim>
					<dim>38</dim>
					<dim>38</dim>
				</port>
			</output>
		</layer>
		<layer id="319" name="380/fq_weights_1/Convert_to_float/Cast_05423_const" type="Const" version="opset1">
			<data element_type="u8" offset="37217" shape="24,144,1,1" size="3456"/>
			<output>
				<port id="1" precision="U8">
					<dim>24</dim>
					<dim>144</dim>
					<dim>1</dim>
					<dim>1</dim>
				</port>
			</output>
		</layer>
		<layer id="320" name="380/fq_weights_1/Convert_to_float" type="Convert" version="opset1">
			<data destination_type="f16"/>
			<input>
				<port id="0">
					<dim>24</dim>
					<dim>144</dim>
					<dim>1</dim>
					<dim>1</dim>
				</port>
			</input>
			<output>
				<port id="1" precision="FP16">
					<dim>24</dim>
					<dim>144</dim>
					<dim>1</dim>
					<dim>1</dim>
				</port>
			</output>
		</layer>
		<layer id="321" name="380/fq_weights_1/Copy/out_low4267_const" type="Const" version="opset1">
			<data element_type="f16" offset="40673" shape="1" size="2"/>
			<output>
				<port id="1" precision="FP16">
					<dim>1</dim>
				</port>
			</output>
		</layer>
		<layer id="322" name="380/fq_weights_1/Copy/out_high4268_const" type="Const" version="opset1">
			<data element_type="f16" offset="7" shape="1" size="2"/>
			<output>
				<port id="1" precision="FP16">
					<dim>1</dim>
				</port>
			</output>
		</layer>
		<layer id="323" name="15711575_const" type="Const" version="opset1">
			<data element_type="f16" offset="40675" shape="24,1,1,1" size="48"/>
			<output>
				<port id="1" precision="FP16">
					<dim>24</dim>
					<dim>1</dim>
					<dim>1</dim>
					<dim>1</dim>
				</port>
			</output>
		</layer>
		<layer id="324" name="15721576_const" type="Const" version="opset1">
			<data element_type="f16" offset="40723" shape="24,1,1,1" size="48"/>
			<output>
				<port id="1" precision="FP16">
					<dim>24</dim>
					<dim>1</dim>
					<dim>1</dim>
					<dim>1</dim>
				</port>
			</output>
		</layer>
		<layer id="325" name="380/fq_weights_1" type="FakeQuantize" version="opset1">
			<data levels="255"/>
			<input>
				<port id="0">
					<dim>24</dim>
					<dim>144</dim>
					<dim>1</dim>
					<dim>1</dim>
				</port>
				<port id="1">
					<dim>1</dim>
				</port>
				<port id="2">
					<dim>1</dim>
				</port>
				<port id="3">
					<dim>24</dim>
					<dim>1</dim>
					<dim>1</dim>
					<dim>1</dim>
				</port>
				<port id="4">
					<dim>24</dim>
					<dim>1</dim>
					<dim>1</dim>
					<dim>1</dim>
				</port>
			</input>
			<output>
				<port id="5" precision="FP16">
					<dim>24</dim>
					<dim>144</dim>
					<dim>1</dim>
					<dim>1</dim>
				</port>
			</output>
		</layer>
		<layer id="326" name="380" type="Convolution" version="opset1">
			<data dilations="1,1" output_padding="0,0" pads_begin="0,0" pads_end="0,0" strides="1,1"/>
			<input>
				<port id="0">
					<dim>1</dim>
					<dim>144</dim>
					<dim>38</dim>
					<dim>38</dim>
				</port>
				<port id="1">
					<dim>24</dim>
					<dim>144</dim>
					<dim>1</dim>
					<dim>1</dim>
				</port>
			</input>
			<output>
				<port id="2" precision="FP16">
					<dim>1</dim>
					<dim>24</dim>
					<dim>38</dim>
					<dim>38</dim>
				</port>
			</output>
		</layer>
		<layer id="327" name="data_add_98069811/copy_const397_const" type="Const" version="opset1">
			<data element_type="f16" offset="40771" shape="1,24,1,1" size="48"/>
			<output>
				<port id="1" precision="FP16">
					<dim>1</dim>
					<dim>24</dim>
					<dim>1</dim>
					<dim>1</dim>
				</port>
			</output>
		</layer>
		<layer id="328" name="381/variance/Fused_Add_" type="Add" version="opset1">
			<input>
				<port id="0">
					<dim>1</dim>
					<dim>24</dim>
					<dim>38</dim>
					<dim>38</dim>
				</port>
				<port id="1">
					<dim>1</dim>
					<dim>24</dim>
					<dim>1</dim>
					<dim>1</dim>
				</port>
			</input>
			<output>
				<port id="2" precision="FP16">
					<dim>1</dim>
					<dim>24</dim>
					<dim>38</dim>
					<dim>38</dim>
				</port>
			</output>
		</layer>
		<layer id="329" name="12991303_const" type="Const" version="opset1">
			<data element_type="f16" offset="40819" shape="" size="2"/>
			<output>
				<port id="1" precision="FP16"/>
			</output>
		</layer>
		<layer id="330" name="13001304_const" type="Const" version="opset1">
			<data element_type="f16" offset="10497" shape="" size="2"/>
			<output>
				<port id="1" precision="FP16"/>
			</output>
		</layer>
		<layer id="331" name="13011305_const" type="Const" version="opset1">
			<data element_type="f16" offset="40819" shape="" size="2"/>
			<output>
				<port id="1" precision="FP16"/>
			</output>
		</layer>
		<layer id="332" name="13021306_const" type="Const" version="opset1">
			<data element_type="f16" offset="10497" shape="" size="2"/>
			<output>
				<port id="1" precision="FP16"/>
			</output>
		</layer>
		<layer id="333" name="382/fq_input_1" type="FakeQuantize" version="opset1">
			<data levels="256"/>
			<input>
				<port id="0">
					<dim>1</dim>
					<dim>24</dim>
					<dim>38</dim>
					<dim>38</dim>
				</port>
				<port id="1"/>
				<port id="2"/>
				<port id="3"/>
				<port id="4"/>
			</input>
			<output>
				<port id="5" precision="FP16">
					<dim>1</dim>
					<dim>24</dim>
					<dim>38</dim>
					<dim>38</dim>
				</port>
			</output>
		</layer>
		<layer id="334" name="382" type="Add" version="opset1">
			<input>
				<port id="0">
					<dim>1</dim>
					<dim>24</dim>
					<dim>38</dim>
					<dim>38</dim>
				</port>
				<port id="1">
					<dim>1</dim>
					<dim>24</dim>
					<dim>38</dim>
					<dim>38</dim>
				</port>
			</input>
			<output>
				<port id="2" precision="FP16">
					<dim>1</dim>
					<dim>24</dim>
					<dim>38</dim>
					<dim>38</dim>
				</port>
			</output>
		</layer>
		<layer id="335" name="18191823_const" type="Const" version="opset1">
			<data element_type="f16" offset="40821" shape="" size="2"/>
			<output>
				<port id="1" precision="FP16"/>
			</output>
		</layer>
		<layer id="336" name="18201824_const" type="Const" version="opset1">
			<data element_type="f16" offset="40823" shape="" size="2"/>
			<output>
				<port id="1" precision="FP16"/>
			</output>
		</layer>
		<layer id="337" name="18211825_const" type="Const" version="opset1">
			<data element_type="f16" offset="40821" shape="" size="2"/>
			<output>
				<port id="1" precision="FP16"/>
			</output>
		</layer>
		<layer id="338" name="18221826_const" type="Const" version="opset1">
			<data element_type="f16" offset="40823" shape="" size="2"/>
			<output>
				<port id="1" precision="FP16"/>
			</output>
		</layer>
		<layer id="339" name="383/fq_input_0" type="FakeQuantize" version="opset1">
			<data levels="256"/>
			<input>
				<port id="0">
					<dim>1</dim>
					<dim>24</dim>
					<dim>38</dim>
					<dim>38</dim>
				</port>
				<port id="1"/>
				<port id="2"/>
				<port id="3"/>
				<port id="4"/>
			</input>
			<output>
				<port id="5" precision="FP16">
					<dim>1</dim>
					<dim>24</dim>
					<dim>38</dim>
					<dim>38</dim>
				</port>
			</output>
		</layer>
		<layer id="340" name="383/fq_weights_1/Convert_to_float/Cast_05321_const" type="Const" version="opset1">
			<data element_type="u8" offset="40825" shape="144,24,1,1" size="3456"/>
			<output>
				<port id="1" precision="U8">
					<dim>144</dim>
					<dim>24</dim>
					<dim>1</dim>
					<dim>1</dim>
				</port>
			</output>
		</layer>
		<layer id="341" name="383/fq_weights_1/Convert_to_float" type="Convert" version="opset1">
			<data destination_type="f16"/>
			<input>
				<port id="0">
					<dim>144</dim>
					<dim>24</dim>
					<dim>1</dim>
					<dim>1</dim>
				</port>
			</input>
			<output>
				<port id="1" precision="FP16">
					<dim>144</dim>
					<dim>24</dim>
					<dim>1</dim>
					<dim>1</dim>
				</port>
			</output>
		</layer>
		<layer id="342" name="383/fq_weights_1/Copy/out_low4691_const" type="Const" version="opset1">
			<data element_type="f16" offset="40673" shape="1" size="2"/>
			<output>
				<port id="1" precision="FP16">
					<dim>1</dim>
				</port>
			</output>
		</layer>
		<layer id="343" name="383/fq_weights_1/Copy/out_high4692_const" type="Const" version="opset1">
			<data element_type="f16" offset="7" shape="1" size="2"/>
			<output>
				<port id="1" precision="FP16">
					<dim>1</dim>
				</port>
			</output>
		</layer>
		<layer id="344" name="18311835_const" type="Const" version="opset1">
			<data element_type="f16" offset="44281" shape="144,1,1,1" size="288"/>
			<output>
				<port id="1" precision="FP16">
					<dim>144</dim>
					<dim>1</dim>
					<dim>1</dim>
					<dim>1</dim>
				</port>
			</output>
		</layer>
		<layer id="345" name="18321836_const" type="Const" version="opset1">
			<data element_type="f16" offset="44569" shape="144,1,1,1" size="288"/>
			<output>
				<port id="1" precision="FP16">
					<dim>144</dim>
					<dim>1</dim>
					<dim>1</dim>
					<dim>1</dim>
				</port>
			</output>
		</layer>
		<layer id="346" name="383/fq_weights_1" type="FakeQuantize" version="opset1">
			<data levels="255"/>
			<input>
				<port id="0">
					<dim>144</dim>
					<dim>24</dim>
					<dim>1</dim>
					<dim>1</dim>
				</port>
				<port id="1">
					<dim>1</dim>
				</port>
				<port id="2">
					<dim>1</dim>
				</port>
				<port id="3">
					<dim>144</dim>
					<dim>1</dim>
					<dim>1</dim>
					<dim>1</dim>
				</port>
				<port id="4">
					<dim>144</dim>
					<dim>1</dim>
					<dim>1</dim>
					<dim>1</dim>
				</port>
			</input>
			<output>
				<port id="5" precision="FP16">
					<dim>144</dim>
					<dim>24</dim>
					<dim>1</dim>
					<dim>1</dim>
				</port>
			</output>
		</layer>
		<layer id="347" name="383" type="Convolution" version="opset1">
			<data dilations="1,1" output_padding="0,0" pads_begin="0,0" pads_end="0,0" strides="1,1"/>
			<input>
				<port id="0">
					<dim>1</dim>
					<dim>24</dim>
					<dim>38</dim>
					<dim>38</dim>
				</port>
				<port id="1">
					<dim>144</dim>
					<dim>24</dim>
					<dim>1</dim>
					<dim>1</dim>
				</port>
			</input>
			<output>
				<port id="2" precision="FP16">
					<dim>1</dim>
					<dim>144</dim>
					<dim>38</dim>
					<dim>38</dim>
				</port>
			</output>
		</layer>
		<layer id="348" name="data_add_98149819/copy_const402_const" type="Const" version="opset1">
			<data element_type="f16" offset="44857" shape="1,144,1,1" size="288"/>
			<output>
				<port id="1" precision="FP16">
					<dim>1</dim>
					<dim>144</dim>
					<dim>1</dim>
					<dim>1</dim>
				</port>
			</output>
		</layer>
		<layer id="349" name="384/variance/Fused_Add_" type="Add" version="opset1">
			<input>
				<port id="0">
					<dim>1</dim>
					<dim>144</dim>
					<dim>38</dim>
					<dim>38</dim>
				</port>
				<port id="1">
					<dim>1</dim>
					<dim>144</dim>
					<dim>1</dim>
					<dim>1</dim>
				</port>
			</input>
			<output>
				<port id="2" precision="FP16">
					<dim>1</dim>
					<dim>144</dim>
					<dim>38</dim>
					<dim>38</dim>
				</port>
			</output>
		</layer>
		<layer id="350" name="385" type="ReLU" version="opset1">
			<input>
				<port id="0">
					<dim>1</dim>
					<dim>144</dim>
					<dim>38</dim>
					<dim>38</dim>
				</port>
			</input>
			<output>
				<port id="1" precision="FP16">
					<dim>1</dim>
					<dim>144</dim>
					<dim>38</dim>
					<dim>38</dim>
				</port>
			</output>
		</layer>
		<layer id="351" name="20392043_const" type="Const" version="opset1">
			<data element_type="f16" offset="24055" shape="1,144,1,1" size="288"/>
			<output>
				<port id="1" precision="FP16">
					<dim>1</dim>
					<dim>144</dim>
					<dim>1</dim>
					<dim>1</dim>
				</port>
			</output>
		</layer>
		<layer id="352" name="20402044_const" type="Const" version="opset1">
			<data element_type="f16" offset="45145" shape="1,144,1,1" size="288"/>
			<output>
				<port id="1" precision="FP16">
					<dim>1</dim>
					<dim>144</dim>
					<dim>1</dim>
					<dim>1</dim>
				</port>
			</output>
		</layer>
		<layer id="353" name="20412045_const" type="Const" version="opset1">
			<data element_type="f16" offset="24055" shape="1,144,1,1" size="288"/>
			<output>
				<port id="1" precision="FP16">
					<dim>1</dim>
					<dim>144</dim>
					<dim>1</dim>
					<dim>1</dim>
				</port>
			</output>
		</layer>
		<layer id="354" name="20422046_const" type="Const" version="opset1">
			<data element_type="f16" offset="45145" shape="1,144,1,1" size="288"/>
			<output>
				<port id="1" precision="FP16">
					<dim>1</dim>
					<dim>144</dim>
					<dim>1</dim>
					<dim>1</dim>
				</port>
			</output>
		</layer>
		<layer id="355" name="386/fq_input_0" type="FakeQuantize" version="opset1">
			<data levels="256"/>
			<input>
				<port id="0">
					<dim>1</dim>
					<dim>144</dim>
					<dim>38</dim>
					<dim>38</dim>
				</port>
				<port id="1">
					<dim>1</dim>
					<dim>144</dim>
					<dim>1</dim>
					<dim>1</dim>
				</port>
				<port id="2">
					<dim>1</dim>
					<dim>144</dim>
					<dim>1</dim>
					<dim>1</dim>
				</port>
				<port id="3">
					<dim>1</dim>
					<dim>144</dim>
					<dim>1</dim>
					<dim>1</dim>
				</port>
				<port id="4">
					<dim>1</dim>
					<dim>144</dim>
					<dim>1</dim>
					<dim>1</dim>
				</port>
			</input>
			<output>
				<port id="5" precision="FP16">
					<dim>1</dim>
					<dim>144</dim>
					<dim>38</dim>
					<dim>38</dim>
				</port>
			</output>
		</layer>
		<layer id="356" name="386/fq_weights_1/Convert_to_float/Cast_05401_const" type="Const" version="opset1">
			<data element_type="u8" offset="45433" shape="144,1,3,3" size="1296"/>
			<output>
				<port id="1" precision="U8">
					<dim>144</dim>
					<dim>1</dim>
					<dim>3</dim>
					<dim>3</dim>
				</port>
			</output>
		</layer>
		<layer id="357" name="386/fq_weights_1/Convert_to_float" type="Convert" version="opset1">
			<data destination_type="f16"/>
			<input>
				<port id="0">
					<dim>144</dim>
					<dim>1</dim>
					<dim>3</dim>
					<dim>3</dim>
				</port>
			</input>
			<output>
				<port id="1" precision="FP16">
					<dim>144</dim>
					<dim>1</dim>
					<dim>3</dim>
					<dim>3</dim>
				</port>
			</output>
		</layer>
		<layer id="358" name="386/fq_weights_1/Copy/out_low4515_const" type="Const" version="opset1">
			<data element_type="f16" offset="40673" shape="1" size="2"/>
			<output>
				<port id="1" precision="FP16">
					<dim>1</dim>
				</port>
			</output>
		</layer>
		<layer id="359" name="386/fq_weights_1/Copy/out_high4516_const" type="Const" version="opset1">
			<data element_type="f16" offset="7" shape="1" size="2"/>
			<output>
				<port id="1" precision="FP16">
					<dim>1</dim>
				</port>
			</output>
		</layer>
		<layer id="360" name="20512055_const" type="Const" version="opset1">
			<data element_type="f16" offset="46729" shape="144,1,1,1" size="288"/>
			<output>
				<port id="1" precision="FP16">
					<dim>144</dim>
					<dim>1</dim>
					<dim>1</dim>
					<dim>1</dim>
				</port>
			</output>
		</layer>
		<layer id="361" name="20522056_const" type="Const" version="opset1">
			<data element_type="f16" offset="47017" shape="144,1,1,1" size="288"/>
			<output>
				<port id="1" precision="FP16">
					<dim>144</dim>
					<dim>1</dim>
					<dim>1</dim>
					<dim>1</dim>
				</port>
			</output>
		</layer>
		<layer id="362" name="386/fq_weights_1" type="FakeQuantize" version="opset1">
			<data levels="255"/>
			<input>
				<port id="0">
					<dim>144</dim>
					<dim>1</dim>
					<dim>3</dim>
					<dim>3</dim>
				</port>
				<port id="1">
					<dim>1</dim>
				</port>
				<port id="2">
					<dim>1</dim>
				</port>
				<port id="3">
					<dim>144</dim>
					<dim>1</dim>
					<dim>1</dim>
					<dim>1</dim>
				</port>
				<port id="4">
					<dim>144</dim>
					<dim>1</dim>
					<dim>1</dim>
					<dim>1</dim>
				</port>
			</input>
			<output>
				<port id="5" precision="FP16">
					<dim>144</dim>
					<dim>1</dim>
					<dim>3</dim>
					<dim>3</dim>
				</port>
			</output>
		</layer>
		<layer id="363" name="6108/value6110_const" type="Const" version="opset1">
			<data element_type="i64" offset="26503" shape="5" size="40"/>
			<output>
				<port id="1" precision="I64">
					<dim>5</dim>
				</port>
			</output>
		</layer>
		<layer id="364" name="6108" type="Reshape" version="opset1">
			<data special_zero="True"/>
			<input>
				<port id="0">
					<dim>144</dim>
					<dim>1</dim>
					<dim>3</dim>
					<dim>3</dim>
				</port>
				<port id="1">
					<dim>5</dim>
				</port>
			</input>
			<output>
				<port id="2" precision="FP16">
					<dim>144</dim>
					<dim>1</dim>
					<dim>1</dim>
					<dim>3</dim>
					<dim>3</dim>
				</port>
			</output>
		</layer>
		<layer id="365" name="386" type="GroupConvolution" version="opset1">
			<data dilations="1,1" output_padding="0,0" pads_begin="1,1" pads_end="1,1" strides="2,2"/>
			<input>
				<port id="0">
					<dim>1</dim>
					<dim>144</dim>
					<dim>38</dim>
					<dim>38</dim>
				</port>
				<port id="1">
					<dim>144</dim>
					<dim>1</dim>
					<dim>1</dim>
					<dim>3</dim>
					<dim>3</dim>
				</port>
			</input>
			<output>
				<port id="2" precision="FP16">
					<dim>1</dim>
					<dim>144</dim>
					<dim>19</dim>
					<dim>19</dim>
				</port>
			</output>
		</layer>
		<layer id="366" name="data_add_98229827/copy_const407_const" type="Const" version="opset1">
			<data element_type="f16" offset="47305" shape="1,144,1,1" size="288"/>
			<output>
				<port id="1" precision="FP16">
					<dim>1</dim>
					<dim>144</dim>
					<dim>1</dim>
					<dim>1</dim>
				</port>
			</output>
		</layer>
		<layer id="367" name="387/variance/Fused_Add_" type="Add" version="opset1">
			<input>
				<port id="0">
					<dim>1</dim>
					<dim>144</dim>
					<dim>19</dim>
					<dim>19</dim>
				</port>
				<port id="1">
					<dim>1</dim>
					<dim>144</dim>
					<dim>1</dim>
					<dim>1</dim>
				</port>
			</input>
			<output>
				<port id="2" precision="FP16">
					<dim>1</dim>
					<dim>144</dim>
					<dim>19</dim>
					<dim>19</dim>
				</port>
			</output>
		</layer>
		<layer id="368" name="388" type="ReLU" version="opset1">
			<input>
				<port id="0">
					<dim>1</dim>
					<dim>144</dim>
					<dim>19</dim>
					<dim>19</dim>
				</port>
			</input>
			<output>
				<port id="1" precision="FP16">
					<dim>1</dim>
					<dim>144</dim>
					<dim>19</dim>
					<dim>19</dim>
				</port>
			</output>
		</layer>
		<layer id="369" name="20792083_const" type="Const" version="opset1">
			<data element_type="f16" offset="47593" shape="" size="2"/>
			<output>
				<port id="1" precision="FP16"/>
			</output>
		</layer>
		<layer id="370" name="20802084_const" type="Const" version="opset1">
			<data element_type="f16" offset="47595" shape="" size="2"/>
			<output>
				<port id="1" precision="FP16"/>
			</output>
		</layer>
		<layer id="371" name="20812085_const" type="Const" version="opset1">
			<data element_type="f16" offset="47593" shape="" size="2"/>
			<output>
				<port id="1" precision="FP16"/>
			</output>
		</layer>
		<layer id="372" name="20822086_const" type="Const" version="opset1">
			<data element_type="f16" offset="47595" shape="" size="2"/>
			<output>
				<port id="1" precision="FP16"/>
			</output>
		</layer>
		<layer id="373" name="389/fq_input_0" type="FakeQuantize" version="opset1">
			<data levels="256"/>
			<input>
				<port id="0">
					<dim>1</dim>
					<dim>144</dim>
					<dim>19</dim>
					<dim>19</dim>
				</port>
				<port id="1"/>
				<port id="2"/>
				<port id="3"/>
				<port id="4"/>
			</input>
			<output>
				<port id="5" precision="FP16">
					<dim>1</dim>
					<dim>144</dim>
					<dim>19</dim>
					<dim>19</dim>
				</port>
			</output>
		</layer>
		<layer id="374" name="389/fq_weights_1/Convert_to_float/Cast_05353_const" type="Const" version="opset1">
			<data element_type="u8" offset="47597" shape="48,144,1,1" size="6912"/>
			<output>
				<port id="1" precision="U8">
					<dim>48</dim>
					<dim>144</dim>
					<dim>1</dim>
					<dim>1</dim>
				</port>
			</output>
		</layer>
		<layer id="375" name="389/fq_weights_1/Convert_to_float" type="Convert" version="opset1">
			<data destination_type="f16"/>
			<input>
				<port id="0">
					<dim>48</dim>
					<dim>144</dim>
					<dim>1</dim>
					<dim>1</dim>
				</port>
			</input>
			<output>
				<port id="1" precision="FP16">
					<dim>48</dim>
					<dim>144</dim>
					<dim>1</dim>
					<dim>1</dim>
				</port>
			</output>
		</layer>
		<layer id="376" name="389/fq_weights_1/Copy/out_low4619_const" type="Const" version="opset1">
			<data element_type="f16" offset="54509" shape="1" size="2"/>
			<output>
				<port id="1" precision="FP16">
					<dim>1</dim>
				</port>
			</output>
		</layer>
		<layer id="377" name="389/fq_weights_1/Copy/out_high4620_const" type="Const" version="opset1">
			<data element_type="f16" offset="7" shape="1" size="2"/>
			<output>
				<port id="1" precision="FP16">
					<dim>1</dim>
				</port>
			</output>
		</layer>
		<layer id="378" name="20912095_const" type="Const" version="opset1">
			<data element_type="f16" offset="54511" shape="48,1,1,1" size="96"/>
			<output>
				<port id="1" precision="FP16">
					<dim>48</dim>
					<dim>1</dim>
					<dim>1</dim>
					<dim>1</dim>
				</port>
			</output>
		</layer>
		<layer id="379" name="20922096_const" type="Const" version="opset1">
			<data element_type="f16" offset="54607" shape="48,1,1,1" size="96"/>
			<output>
				<port id="1" precision="FP16">
					<dim>48</dim>
					<dim>1</dim>
					<dim>1</dim>
					<dim>1</dim>
				</port>
			</output>
		</layer>
		<layer id="380" name="389/fq_weights_1" type="FakeQuantize" version="opset1">
			<data levels="255"/>
			<input>
				<port id="0">
					<dim>48</dim>
					<dim>144</dim>
					<dim>1</dim>
					<dim>1</dim>
				</port>
				<port id="1">
					<dim>1</dim>
				</port>
				<port id="2">
					<dim>1</dim>
				</port>
				<port id="3">
					<dim>48</dim>
					<dim>1</dim>
					<dim>1</dim>
					<dim>1</dim>
				</port>
				<port id="4">
					<dim>48</dim>
					<dim>1</dim>
					<dim>1</dim>
					<dim>1</dim>
				</port>
			</input>
			<output>
				<port id="5" precision="FP16">
					<dim>48</dim>
					<dim>144</dim>
					<dim>1</dim>
					<dim>1</dim>
				</port>
			</output>
		</layer>
		<layer id="381" name="389" type="Convolution" version="opset1">
			<data dilations="1,1" output_padding="0,0" pads_begin="0,0" pads_end="0,0" strides="1,1"/>
			<input>
				<port id="0">
					<dim>1</dim>
					<dim>144</dim>
					<dim>19</dim>
					<dim>19</dim>
				</port>
				<port id="1">
					<dim>48</dim>
					<dim>144</dim>
					<dim>1</dim>
					<dim>1</dim>
				</port>
			</input>
			<output>
				<port id="2" precision="FP16">
					<dim>1</dim>
					<dim>48</dim>
					<dim>19</dim>
					<dim>19</dim>
				</port>
			</output>
		</layer>
		<layer id="382" name="data_add_98309835/copy_const412_const" type="Const" version="opset1">
			<data element_type="f16" offset="54703" shape="1,48,1,1" size="96"/>
			<output>
				<port id="1" precision="FP16">
					<dim>1</dim>
					<dim>48</dim>
					<dim>1</dim>
					<dim>1</dim>
				</port>
			</output>
		</layer>
		<layer id="383" name="390/variance/Fused_Add_" type="Add" version="opset1">
			<input>
				<port id="0">
					<dim>1</dim>
					<dim>48</dim>
					<dim>19</dim>
					<dim>19</dim>
				</port>
				<port id="1">
					<dim>1</dim>
					<dim>48</dim>
					<dim>1</dim>
					<dim>1</dim>
				</port>
			</input>
			<output>
				<port id="2" precision="FP16">
					<dim>1</dim>
					<dim>48</dim>
					<dim>19</dim>
					<dim>19</dim>
				</port>
			</output>
		</layer>
		<layer id="384" name="21992203_const" type="Const" version="opset1">
			<data element_type="f16" offset="54799" shape="" size="2"/>
			<output>
				<port id="1" precision="FP16"/>
			</output>
		</layer>
		<layer id="385" name="22002204_const" type="Const" version="opset1">
			<data element_type="f16" offset="54801" shape="" size="2"/>
			<output>
				<port id="1" precision="FP16"/>
			</output>
		</layer>
		<layer id="386" name="22012205_const" type="Const" version="opset1">
			<data element_type="f16" offset="54799" shape="" size="2"/>
			<output>
				<port id="1" precision="FP16"/>
			</output>
		</layer>
		<layer id="387" name="22022206_const" type="Const" version="opset1">
			<data element_type="f16" offset="54801" shape="" size="2"/>
			<output>
				<port id="1" precision="FP16"/>
			</output>
		</layer>
		<layer id="388" name="391/fq_input_0" type="FakeQuantize" version="opset1">
			<data levels="256"/>
			<input>
				<port id="0">
					<dim>1</dim>
					<dim>48</dim>
					<dim>19</dim>
					<dim>19</dim>
				</port>
				<port id="1"/>
				<port id="2"/>
				<port id="3"/>
				<port id="4"/>
			</input>
			<output>
				<port id="5" precision="FP16">
					<dim>1</dim>
					<dim>48</dim>
					<dim>19</dim>
					<dim>19</dim>
				</port>
			</output>
		</layer>
		<layer id="389" name="391/fq_weights_1/Convert_to_float/Cast_05311_const" type="Const" version="opset1">
			<data element_type="u8" offset="54803" shape="288,48,1,1" size="13824"/>
			<output>
				<port id="1" precision="U8">
					<dim>288</dim>
					<dim>48</dim>
					<dim>1</dim>
					<dim>1</dim>
				</port>
			</output>
		</layer>
		<layer id="390" name="391/fq_weights_1/Convert_to_float" type="Convert" version="opset1">
			<data destination_type="f16"/>
			<input>
				<port id="0">
					<dim>288</dim>
					<dim>48</dim>
					<dim>1</dim>
					<dim>1</dim>
				</port>
			</input>
			<output>
				<port id="1" precision="FP16">
					<dim>288</dim>
					<dim>48</dim>
					<dim>1</dim>
					<dim>1</dim>
				</port>
			</output>
		</layer>
		<layer id="391" name="391/fq_weights_1/Copy/out_low4571_const" type="Const" version="opset1">
			<data element_type="f16" offset="54509" shape="1" size="2"/>
			<output>
				<port id="1" precision="FP16">
					<dim>1</dim>
				</port>
			</output>
		</layer>
		<layer id="392" name="391/fq_weights_1/Copy/out_high4572_const" type="Const" version="opset1">
			<data element_type="f16" offset="7" shape="1" size="2"/>
			<output>
				<port id="1" precision="FP16">
					<dim>1</dim>
				</port>
			</output>
		</layer>
		<layer id="393" name="22112215_const" type="Const" version="opset1">
			<data element_type="f16" offset="68627" shape="288,1,1,1" size="576"/>
			<output>
				<port id="1" precision="FP16">
					<dim>288</dim>
					<dim>1</dim>
					<dim>1</dim>
					<dim>1</dim>
				</port>
			</output>
		</layer>
		<layer id="394" name="22122216_const" type="Const" version="opset1">
			<data element_type="f16" offset="69203" shape="288,1,1,1" size="576"/>
			<output>
				<port id="1" precision="FP16">
					<dim>288</dim>
					<dim>1</dim>
					<dim>1</dim>
					<dim>1</dim>
				</port>
			</output>
		</layer>
		<layer id="395" name="391/fq_weights_1" type="FakeQuantize" version="opset1">
			<data levels="255"/>
			<input>
				<port id="0">
					<dim>288</dim>
					<dim>48</dim>
					<dim>1</dim>
					<dim>1</dim>
				</port>
				<port id="1">
					<dim>1</dim>
				</port>
				<port id="2">
					<dim>1</dim>
				</port>
				<port id="3">
					<dim>288</dim>
					<dim>1</dim>
					<dim>1</dim>
					<dim>1</dim>
				</port>
				<port id="4">
					<dim>288</dim>
					<dim>1</dim>
					<dim>1</dim>
					<dim>1</dim>
				</port>
			</input>
			<output>
				<port id="5" precision="FP16">
					<dim>288</dim>
					<dim>48</dim>
					<dim>1</dim>
					<dim>1</dim>
				</port>
			</output>
		</layer>
		<layer id="396" name="391" type="Convolution" version="opset1">
			<data dilations="1,1" output_padding="0,0" pads_begin="0,0" pads_end="0,0" strides="1,1"/>
			<input>
				<port id="0">
					<dim>1</dim>
					<dim>48</dim>
					<dim>19</dim>
					<dim>19</dim>
				</port>
				<port id="1">
					<dim>288</dim>
					<dim>48</dim>
					<dim>1</dim>
					<dim>1</dim>
				</port>
			</input>
			<output>
				<port id="2" precision="FP16">
					<dim>1</dim>
					<dim>288</dim>
					<dim>19</dim>
					<dim>19</dim>
				</port>
			</output>
		</layer>
		<layer id="397" name="data_add_98389843/copy_const416_const" type="Const" version="opset1">
			<data element_type="f16" offset="69779" shape="1,288,1,1" size="576"/>
			<output>
				<port id="1" precision="FP16">
					<dim>1</dim>
					<dim>288</dim>
					<dim>1</dim>
					<dim>1</dim>
				</port>
			</output>
		</layer>
		<layer id="398" name="392/variance/Fused_Add_" type="Add" version="opset1">
			<input>
				<port id="0">
					<dim>1</dim>
					<dim>288</dim>
					<dim>19</dim>
					<dim>19</dim>
				</port>
				<port id="1">
					<dim>1</dim>
					<dim>288</dim>
					<dim>1</dim>
					<dim>1</dim>
				</port>
			</input>
			<output>
				<port id="2" precision="FP16">
					<dim>1</dim>
					<dim>288</dim>
					<dim>19</dim>
					<dim>19</dim>
				</port>
			</output>
		</layer>
		<layer id="399" name="393" type="ReLU" version="opset1">
			<input>
				<port id="0">
					<dim>1</dim>
					<dim>288</dim>
					<dim>19</dim>
					<dim>19</dim>
				</port>
			</input>
			<output>
				<port id="1" precision="FP16">
					<dim>1</dim>
					<dim>288</dim>
					<dim>19</dim>
					<dim>19</dim>
				</port>
			</output>
		</layer>
		<layer id="400" name="12291233_const" type="Const" version="opset1">
			<data element_type="f16" offset="70355" shape="1,288,1,1" size="576"/>
			<output>
				<port id="1" precision="FP16">
					<dim>1</dim>
					<dim>288</dim>
					<dim>1</dim>
					<dim>1</dim>
				</port>
			</output>
		</layer>
		<layer id="401" name="12301234_const" type="Const" version="opset1">
			<data element_type="f16" offset="70931" shape="1,288,1,1" size="576"/>
			<output>
				<port id="1" precision="FP16">
					<dim>1</dim>
					<dim>288</dim>
					<dim>1</dim>
					<dim>1</dim>
				</port>
			</output>
		</layer>
		<layer id="402" name="12311235_const" type="Const" version="opset1">
			<data element_type="f16" offset="70355" shape="1,288,1,1" size="576"/>
			<output>
				<port id="1" precision="FP16">
					<dim>1</dim>
					<dim>288</dim>
					<dim>1</dim>
					<dim>1</dim>
				</port>
			</output>
		</layer>
		<layer id="403" name="12321236_const" type="Const" version="opset1">
			<data element_type="f16" offset="70931" shape="1,288,1,1" size="576"/>
			<output>
				<port id="1" precision="FP16">
					<dim>1</dim>
					<dim>288</dim>
					<dim>1</dim>
					<dim>1</dim>
				</port>
			</output>
		</layer>
		<layer id="404" name="394/fq_input_0" type="FakeQuantize" version="opset1">
			<data levels="256"/>
			<input>
				<port id="0">
					<dim>1</dim>
					<dim>288</dim>
					<dim>19</dim>
					<dim>19</dim>
				</port>
				<port id="1">
					<dim>1</dim>
					<dim>288</dim>
					<dim>1</dim>
					<dim>1</dim>
				</port>
				<port id="2">
					<dim>1</dim>
					<dim>288</dim>
					<dim>1</dim>
					<dim>1</dim>
				</port>
				<port id="3">
					<dim>1</dim>
					<dim>288</dim>
					<dim>1</dim>
					<dim>1</dim>
				</port>
				<port id="4">
					<dim>1</dim>
					<dim>288</dim>
					<dim>1</dim>
					<dim>1</dim>
				</port>
			</input>
			<output>
				<port id="5" precision="FP16">
					<dim>1</dim>
					<dim>288</dim>
					<dim>19</dim>
					<dim>19</dim>
				</port>
			</output>
		</layer>
		<layer id="405" name="394/fq_weights_1/Convert_to_float/Cast_05369_const" type="Const" version="opset1">
			<data element_type="u8" offset="71507" shape="288,1,3,3" size="2592"/>
			<output>
				<port id="1" precision="U8">
					<dim>288</dim>
					<dim>1</dim>
					<dim>3</dim>
					<dim>3</dim>
				</port>
			</output>
		</layer>
		<layer id="406" name="394/fq_weights_1/Convert_to_float" type="Convert" version="opset1">
			<data destination_type="f16"/>
			<input>
				<port id="0">
					<dim>288</dim>
					<dim>1</dim>
					<dim>3</dim>
					<dim>3</dim>
				</port>
			</input>
			<output>
				<port id="1" precision="FP16">
					<dim>288</dim>
					<dim>1</dim>
					<dim>3</dim>
					<dim>3</dim>
				</port>
			</output>
		</layer>
		<layer id="407" name="394/fq_weights_1/Copy/out_low4299_const" type="Const" version="opset1">
			<data element_type="f16" offset="54509" shape="1" size="2"/>
			<output>
				<port id="1" precision="FP16">
					<dim>1</dim>
				</port>
			</output>
		</layer>
		<layer id="408" name="394/fq_weights_1/Copy/out_high4300_const" type="Const" version="opset1">
			<data element_type="f16" offset="7" shape="1" size="2"/>
			<output>
				<port id="1" precision="FP16">
					<dim>1</dim>
				</port>
			</output>
		</layer>
		<layer id="409" name="12411245_const" type="Const" version="opset1">
			<data element_type="f16" offset="74099" shape="288,1,1,1" size="576"/>
			<output>
				<port id="1" precision="FP16">
					<dim>288</dim>
					<dim>1</dim>
					<dim>1</dim>
					<dim>1</dim>
				</port>
			</output>
		</layer>
		<layer id="410" name="12421246_const" type="Const" version="opset1">
			<data element_type="f16" offset="74675" shape="288,1,1,1" size="576"/>
			<output>
				<port id="1" precision="FP16">
					<dim>288</dim>
					<dim>1</dim>
					<dim>1</dim>
					<dim>1</dim>
				</port>
			</output>
		</layer>
		<layer id="411" name="394/fq_weights_1" type="FakeQuantize" version="opset1">
			<data levels="255"/>
			<input>
				<port id="0">
					<dim>288</dim>
					<dim>1</dim>
					<dim>3</dim>
					<dim>3</dim>
				</port>
				<port id="1">
					<dim>1</dim>
				</port>
				<port id="2">
					<dim>1</dim>
				</port>
				<port id="3">
					<dim>288</dim>
					<dim>1</dim>
					<dim>1</dim>
					<dim>1</dim>
				</port>
				<port id="4">
					<dim>288</dim>
					<dim>1</dim>
					<dim>1</dim>
					<dim>1</dim>
				</port>
			</input>
			<output>
				<port id="5" precision="FP16">
					<dim>288</dim>
					<dim>1</dim>
					<dim>3</dim>
					<dim>3</dim>
				</port>
			</output>
		</layer>
		<layer id="412" name="6052/value6054_const" type="Const" version="opset1">
			<data element_type="i64" offset="75251" shape="5" size="40"/>
			<output>
				<port id="1" precision="I64">
					<dim>5</dim>
				</port>
			</output>
		</layer>
		<layer id="413" name="6052" type="Reshape" version="opset1">
			<data special_zero="True"/>
			<input>
				<port id="0">
					<dim>288</dim>
					<dim>1</dim>
					<dim>3</dim>
					<dim>3</dim>
				</port>
				<port id="1">
					<dim>5</dim>
				</port>
			</input>
			<output>
				<port id="2" precision="FP16">
					<dim>288</dim>
					<dim>1</dim>
					<dim>1</dim>
					<dim>3</dim>
					<dim>3</dim>
				</port>
			</output>
		</layer>
		<layer id="414" name="394" type="GroupConvolution" version="opset1">
			<data dilations="1,1" output_padding="0,0" pads_begin="1,1" pads_end="1,1" strides="1,1"/>
			<input>
				<port id="0">
					<dim>1</dim>
					<dim>288</dim>
					<dim>19</dim>
					<dim>19</dim>
				</port>
				<port id="1">
					<dim>288</dim>
					<dim>1</dim>
					<dim>1</dim>
					<dim>3</dim>
					<dim>3</dim>
				</port>
			</input>
			<output>
				<port id="2" precision="FP16">
					<dim>1</dim>
					<dim>288</dim>
					<dim>19</dim>
					<dim>19</dim>
				</port>
			</output>
		</layer>
		<layer id="415" name="data_add_98469851/copy_const421_const" type="Const" version="opset1">
			<data element_type="f16" offset="75291" shape="1,288,1,1" size="576"/>
			<output>
				<port id="1" precision="FP16">
					<dim>1</dim>
					<dim>288</dim>
					<dim>1</dim>
					<dim>1</dim>
				</port>
			</output>
		</layer>
		<layer id="416" name="395/variance/Fused_Add_" type="Add" version="opset1">
			<input>
				<port id="0">
					<dim>1</dim>
					<dim>288</dim>
					<dim>19</dim>
					<dim>19</dim>
				</port>
				<port id="1">
					<dim>1</dim>
					<dim>288</dim>
					<dim>1</dim>
					<dim>1</dim>
				</port>
			</input>
			<output>
				<port id="2" precision="FP16">
					<dim>1</dim>
					<dim>288</dim>
					<dim>19</dim>
					<dim>19</dim>
				</port>
			</output>
		</layer>
		<layer id="417" name="396" type="ReLU" version="opset1">
			<input>
				<port id="0">
					<dim>1</dim>
					<dim>288</dim>
					<dim>19</dim>
					<dim>19</dim>
				</port>
			</input>
			<output>
				<port id="1" precision="FP16">
					<dim>1</dim>
					<dim>288</dim>
					<dim>19</dim>
					<dim>19</dim>
				</port>
			</output>
		</layer>
		<layer id="418" name="15791583_const" type="Const" version="opset1">
			<data element_type="f16" offset="75867" shape="" size="2"/>
			<output>
				<port id="1" precision="FP16"/>
			</output>
		</layer>
		<layer id="419" name="15801584_const" type="Const" version="opset1">
			<data element_type="f16" offset="75869" shape="" size="2"/>
			<output>
				<port id="1" precision="FP16"/>
			</output>
		</layer>
		<layer id="420" name="15811585_const" type="Const" version="opset1">
			<data element_type="f16" offset="75867" shape="" size="2"/>
			<output>
				<port id="1" precision="FP16"/>
			</output>
		</layer>
		<layer id="421" name="15821586_const" type="Const" version="opset1">
			<data element_type="f16" offset="75869" shape="" size="2"/>
			<output>
				<port id="1" precision="FP16"/>
			</output>
		</layer>
		<layer id="422" name="397/fq_input_0" type="FakeQuantize" version="opset1">
			<data levels="256"/>
			<input>
				<port id="0">
					<dim>1</dim>
					<dim>288</dim>
					<dim>19</dim>
…
		<edge from-layer="383" from-port="2" to-layer="388" to-port="0"/>
		<edge from-layer="384" from-port="1" to-layer="388" to-port="1"/>
		<edge from-layer="385" from-port="1" to-layer="388" to-port="2"/>
		<edge from-layer="386" from-port="1" to-layer="388" to-port="3"/>
		<edge from-layer="387" from-port="1" to-layer="388" to-port="4"/>
		<edge from-layer="389" from-port="1" to-layer="390" to-port="0"/>
		<edge from-layer="390" from-port="1" to-layer="395" to-port="0"/>
		<edge from-layer="391" from-port="1" to-layer="395" to-port="1"/>
		<edge from-layer="392" from-port="1" to-layer="395" to-port="2"/>
		<edge from-layer="393" from-port="1" to-layer="395" to-port="3"/>
		<edge from-layer="394" from-port="1" to-layer="395" to-port="4"/>
		<edge from-layer="388" from-port="5" to-layer="396" to-port="0"/>
		<edge from-layer="395" from-port="5" to-layer="396" to-port="1"/>
		<edge from-layer="396" from-port="2" to-layer="398" to-port="0"/>
		<edge from-layer="397" from-port="1" to-layer="398" to-port="1"/>
		<edge from-layer="398" from-port="2" to-layer="399" to-port="0"/>
		<edge from-layer="399" from-port="1" to-layer="404" to-port="0"/>
		<edge from-layer="400" from-port="1" to-layer="404" to-port="1"/>
		<edge from-layer="401" from-port="1" to-layer="404" to-port="2"/>
		<edge from-layer="402" from-port="1" to-layer="404" to-port="3"/>
		<edge from-layer="403" from-port="1" to-layer="404" to-port="4"/>
		<edge from-layer="405" from-port="1" to-layer="406" to-port="0"/>
		<edge from-layer="406" from-port="1" to-layer="411" to-port="0"/>
		<edge from-layer="407" from-port="1" to-layer="411" to-port="1"/>
		<edge from-layer="408" from-port="1" to-layer="411" to-port="2"/>
		<edge from-layer="409" from-port="1" to-layer="411" to-port="3"/>
		<edge from-layer="410" from-port="1" to-layer="411" to-port="4"/>
		<edge from-layer="411" from-port="5" to-layer="413" to-port="0"/>
		<edge from-layer="412" from-port="1" to-layer="413" to-port="1"/>
		<edge from-layer="404" from-port="5" to-layer="414" to-port="0"/>
		<edge from-layer="413" from-port="2" to-layer="414" to-port="1"/>
		<edge from-layer="414" from-port="2" to-layer="416" to-port="0"/>
		<edge from-layer="415" from-port="1" to-layer="416" to-port="1"/>
		<edge from-layer="416" from-port="2" to-layer="417" to-port="0"/>
		<edge from-layer="417" from-port="1" to-layer="422" to-port="0"/>
		<edge from-layer="418" from-port="1" to-layer="422" to-port="1"/>
		<edge from-layer="419" from-port="1" to-layer="422" to-port="2"/>
		<edge from-layer="420" from-port="1" to-layer="422" to-port="3"/>
		<edge from-layer="421" from-port="1" to-layer="422" to-port="4"/>
		<edge from-layer="423" from-port="1" to-layer="424" to-port="0"/>
		<edge from-layer="424" from-port="1" to-layer="429" to-port="0"/>
		<edge from-layer="425" from-port="1" to-layer="429" to-port="1"/>
		<edge from-layer="426" from-port="1" to-layer="429" to-port="2"/>
		<edge from-layer="427" from-port="1" to-layer="429" to-port="3"/>
		<edge from-layer="428" from-port="1" to-layer="429" to-port="4"/>
		<edge from-layer="422" from-port="5" to-layer="430" to-port="0"/>
		<edge from-layer="429" from-port="5" to-layer="430" to-port="1"/>
		<edge from-layer="430" from-port="2" to-layer="432" to-port="0"/>
		<edge from-layer="431" from-port="1" to-layer="432" to-port="1"/>
		<edge from-layer="432" from-port="2" to-layer="437" to-port="0"/>
		<edge from-layer="433" from-port="1" to-layer="437" to-port="1"/>
		<edge from-layer="434" from-port="1" to-layer="437" to-port="2"/>
		<edge from-layer="435" from-port="1" to-layer="437" to-port="3"/>
		<edge from-layer="436" from-port="1" to-layer="437" to-port="4"/>
		<edge from-layer="388" from-port="5" to-layer="438" to-port="0"/>
		<edge from-layer="437" from-port="5" to-layer="438" to-port="1"/>
		<edge from-layer="438" from-port="2" to-layer="443" to-port="0"/>
		<edge from-layer="439" from-port="1" to-layer="443" to-port="1"/>
		<edge from-layer="440" from-port="1" to-layer="443" to-port="2"/>
		<edge from-layer="441" from-port="1" to-layer="443" to-port="3"/>
		<edge from-layer="442" from-port="1" to-layer="443" to-port="4"/>
		<edge from-layer="444" from-port="1" to-layer="445" to-port="0"/>
		<edge from-layer="445" from-port="1" to-layer="450" to-port="0"/>
		<edge from-layer="446" from-port="1" to-layer="450" to-port="1"/>
		<edge from-layer="447" from-port="1" to-layer="450" to-port="2"/>
		<edge from-layer="448" from-port="1" to-layer="450" to-port="3"/>
		<edge from-layer="449" from-port="1" to-layer="450" to-port="4"/>
		<edge from-layer="443" from-port="5" to-layer="451" to-port="0"/>
		<edge from-layer="450" from-port="5" to-layer="451" to-port="1"/>
		<edge from-layer="451" from-port="2" to-layer="453" to-port="0"/>
		<edge from-layer="452" from-port="1" to-layer="453" to-port="1"/>
		<edge from-layer="453" from-port="2" to-layer="454" to-port="0"/>
		<edge from-layer="454" from-port="1" to-layer="459" to-port="0"/>
		<edge from-layer="455" from-port="1" to-layer="459" to-port="1"/>
		<edge from-layer="456" from-port="1" to-layer="459" to-port="2"/>
		<edge from-layer="457" from-port="1" to-layer="459" to-port="3"/>
		<edge from-layer="458" from-port="1" to-layer="459" to-port="4"/>
		<edge from-layer="460" from-port="1" to-layer="461" to-port="0"/>
		<edge from-layer="461" from-port="1" to-layer="466" to-port="0"/>
		<edge from-layer="462" from-port="1" to-layer="466" to-port="1"/>
		<edge from-layer="463" from-port="1" to-layer="466" to-port="2"/>
		<edge from-layer="464" from-port="1" to-layer="466" to-port="3"/>
		<edge from-layer="465" from-port="1" to-layer="466" to-port="4"/>
		<edge from-layer="466" from-port="5" to-layer="468" to-port="0"/>
		<edge from-layer="467" from-port="1" to-layer="468" to-port="1"/>
		<edge from-layer="459" from-port="5" to-layer="469" to-port="0"/>
		<edge from-layer="468" from-port="2" to-layer="469" to-port="1"/>
		<edge from-layer="469" from-port="2" to-layer="471" to-port="0"/>
		<edge from-layer="470" from-port="1" to-layer="471" to-port="1"/>
		<edge from-layer="471" from-port="2" to-layer="472" to-port="0"/>
		<edge from-layer="472" from-port="1" to-layer="477" to-port="0"/>
		<edge from-layer="473" from-port="1" to-layer="477" to-port="1"/>
		<edge from-layer="474" from-port="1" to-layer="477" to-port="2"/>
		<edge from-layer="475" from-port="1" to-layer="477" to-port="3"/>
		<edge from-layer="476" from-port="1" to-layer="477" to-port="4"/>
		<edge from-layer="478" from-port="1" to-layer="479" to-port="0"/>
		<edge from-layer="479" from-port="1" to-layer="484" to-port="0"/>
		<edge from-layer="480" from-port="1" to-layer="484" to-port="1"/>
		<edge from-layer="481" from-port="1" to-layer="484" to-port="2"/>
		<edge from-layer="482" from-port="1" to-layer="484" to-port="3"/>
		<edge from-layer="483" from-port="1" to-layer="484" to-port="4"/>
		<edge from-layer="477" from-port="5" to-layer="485" to-port="0"/>
		<edge from-layer="484" from-port="5" to-layer="485" to-port="1"/>
		<edge from-layer="485" from-port="2" to-layer="487" to-port="0"/>
		<edge from-layer="486" from-port="1" to-layer="487" to-port="1"/>
		<edge from-layer="487" from-port="2" to-layer="492" to-port="0"/>
		<edge from-layer="488" from-port="1" to-layer="492" to-port="1"/>
		<edge from-layer="489" from-port="1" to-layer="492" to-port="2"/>
		<edge from-layer="490" from-port="1" to-layer="492" to-port="3"/>
		<edge from-layer="491" from-port="1" to-layer="492" to-port="4"/>
		<edge from-layer="443" from-port="5" to-layer="493" to-port="0"/>
		<edge from-layer="492" from-port="5" to-layer="493" to-port="1"/>
		<edge from-layer="493" from-port="2" to-layer="498" to-port="0"/>
		<edge from-layer="494" from-port="1" to-layer="498" to-port="1"/>
		<edge from-layer="495" from-port="1" to-layer="498" to-port="2"/>
		<edge from-layer="496" from-port="1" to-layer="498" to-port="3"/>
		<edge from-layer="497" from-port="1" to-layer="498" to-port="4"/>
		<edge from-layer="499" from-port="1" to-layer="500" to-port="0"/>
		<edge from-layer="500" from-port="1" to-layer="505" to-port="0"/>
		<edge from-layer="501" from-port="1" to-layer="505" to-port="1"/>
		<edge from-layer="502" from-port="1" to-layer="505" to-port="2"/>
		<edge from-layer="503" from-port="1" to-layer="505" to-port="3"/>
		<edge from-layer="504" from-port="1" to-layer="505" to-port="4"/>
		<edge from-layer="498" from-port="5" to-layer="506" to-port="0"/>
		<edge from-layer="505" from-port="5" to-layer="506" to-port="1"/>
		<edge from-layer="506" from-port="2" to-layer="508" to-port="0"/>
		<edge from-layer="507" from-port="1" to-layer="508" to-port="1"/>
		<edge from-layer="508" from-port="2" to-layer="509" to-port="0"/>
		<edge from-layer="509" from-port="1" to-layer="514" to-port="0"/>
		<edge from-layer="510" from-port="1" to-layer="514" to-port="1"/>
		<edge from-layer="511" from-port="1" to-layer="514" to-port="2"/>
		<edge from-layer="512" from-port="1" to-layer="514" to-port="3"/>
		<edge from-layer="513" from-port="1" to-layer="514" to-port="4"/>
		<edge from-layer="515" from-port="1" to-layer="516" to-port="0"/>
		<edge from-layer="516" from-port="1" to-layer="521" to-port="0"/>
		<edge from-layer="517" from-port="1" to-layer="521" to-port="1"/>
		<edge from-layer="518" from-port="1" to-layer="521" to-port="2"/>
		<edge from-layer="519" from-port="1" to-layer="521" to-port="3"/>
		<edge from-layer="520" from-port="1" to-layer="521" to-port="4"/>
		<edge from-layer="521" from-port="5" to-layer="523" to-port="0"/>
		<edge from-layer="522" from-port="1" to-layer="523" to-port="1"/>
		<edge from-layer="514" from-port="5" to-layer="524" to-port="0"/>
		<edge from-layer="523" from-port="2" to-layer="524" to-port="1"/>
		<edge from-layer="524" from-port="2" to-layer="526" to-port="0"/>
		<edge from-layer="525" from-port="1" to-layer="526" to-port="1"/>
		<edge from-layer="526" from-port="2" to-layer="527" to-port="0"/>
		<edge from-layer="527" from-port="1" to-layer="532" to-port="0"/>
		<edge from-layer="528" from-port="1" to-layer="532" to-port="1"/>
		<edge from-layer="529" from-port="1" to-layer="532" to-port="2"/>
		<edge from-layer="530" from-port="1" to-layer="532" to-port="3"/>
		<edge from-layer="531" from-port="1" to-layer="532" to-port="4"/>
		<edge from-layer="533" from-port="1" to-layer="534" to-port="0"/>
		<edge from-layer="534" from-port="1" to-layer="539" to-port="0"/>
		<edge from-layer="535" from-port="1" to-layer="539" to-port="1"/>
		<edge from-layer="536" from-port="1" to-layer="539" to-port="2"/>
		<edge from-layer="537" from-port="1" to-layer="539" to-port="3"/>
		<edge from-layer="538" from-port="1" to-layer="539" to-port="4"/>
		<edge from-layer="532" from-port="5" to-layer="540" to-port="0"/>
		<edge from-layer="539" from-port="5" to-layer="540" to-port="1"/>
		<edge from-layer="540" from-port="2" to-layer="542" to-port="0"/>
		<edge from-layer="541" from-port="1" to-layer="542" to-port="1"/>
		<edge from-layer="542" from-port="2" to-layer="547" to-port="0"/>
		<edge from-layer="543" from-port="1" to-layer="547" to-port="1"/>
		<edge from-layer="544" from-port="1" to-layer="547" to-port="2"/>
		<edge from-layer="545" from-port="1" to-layer="547" to-port="3"/>
		<edge from-layer="546" from-port="1" to-layer="547" to-port="4"/>
		<edge from-layer="498" from-port="5" to-layer="548" to-port="0"/>
		<edge from-layer="547" from-port="5" to-layer="548" to-port="1"/>
		<edge from-layer="548" from-port="2" to-layer="553" to-port="0"/>
		<edge from-layer="549" from-port="1" to-layer="553" to-port="1"/>
		<edge from-layer="550" from-port="1" to-layer="553" to-port="2"/>
		<edge from-layer="551" from-port="1" to-layer="553" to-port="3"/>
		<edge from-layer="552" from-port="1" to-layer="553" to-port="4"/>
		<edge from-layer="554" from-port="1" to-layer="555" to-port="0"/>
		<edge from-layer="555" from-port="1" to-layer="560" to-port="0"/>
		<edge from-layer="556" from-port="1" to-layer="560" to-port="1"/>
		<edge from-layer="557" from-port="1" to-layer="560" to-port="2"/>
		<edge from-layer="558" from-port="1" to-layer="560" to-port="3"/>
		<edge from-layer="559" from-port="1" to-layer="560" to-port="4"/>
		<edge from-layer="553" from-port="5" to-layer="561" to-port="0"/>
		<edge from-layer="560" from-port="5" to-layer="561" to-port="1"/>
		<edge from-layer="561" from-port="2" to-layer="563" to-port="0"/>
		<edge from-layer="562" from-port="1" to-layer="563" to-port="1"/>
		<edge from-layer="563" from-port="2" to-layer="564" to-port="0"/>
		<edge from-layer="564" from-port="1" to-layer="569" to-port="0"/>
		<edge from-layer="565" from-port="1" to-layer="569" to-port="1"/>
		<edge from-layer="566" from-port="1" to-layer="569" to-port="2"/>
		<edge from-layer="567" from-port="1" to-layer="569" to-port="3"/>
		<edge from-layer="568" from-port="1" to-layer="569" to-port="4"/>
		<edge from-layer="570" from-port="1" to-layer="571" to-port="0"/>
		<edge from-layer="571" from-port="1" to-layer="576" to-port="0"/>
		<edge from-layer="572" from-port="1" to-layer="576" to-port="1"/>
		<edge from-layer="573" from-port="1" to-layer="576" to-port="2"/>
		<edge from-layer="574" from-port="1" to-layer="576" to-port="3"/>
		<edge from-layer="575" from-port="1" to-layer="576" to-port="4"/>
		<edge from-layer="576" from-port="5" to-layer="578" to-port="0"/>
		<edge from-layer="577" from-port="1" to-layer="578" to-port="1"/>
		<edge from-layer="569" from-port="5" to-layer="579" to-port="0"/>
		<edge from-layer="578" from-port="2" to-layer="579" to-port="1"/>
		<edge from-layer="579" from-port="2" to-layer="581" to-port="0"/>
		<edge from-layer="580" from-port="1" to-layer="581" to-port="1"/>
		<edge from-layer="581" from-port="2" to-layer="582" to-port="0"/>
		<edge from-layer="582" from-port="1" to-layer="587" to-port="0"/>
		<edge from-layer="583" from-port="1" to-layer="587" to-port="1"/>
		<edge from-layer="584" from-port="1" to-layer="587" to-port="2"/>
		<edge from-layer="585" from-port="1" to-layer="587" to-port="3"/>
		<edge from-layer="586" from-port="1" to-layer="587" to-port="4"/>
		<edge from-layer="588" from-port="1" to-layer="589" to-port="0"/>
		<edge from-layer="589" from-port="1" to-layer="594" to-port="0"/>
		<edge from-layer="590" from-port="1" to-layer="594" to-port="1"/>
		<edge from-layer="591" from-port="1" to-layer="594" to-port="2"/>
		<edge from-layer="592" from-port="1" to-layer="594" to-port="3"/>
		<edge from-layer="593" from-port="1" to-layer="594" to-port="4"/>
		<edge from-layer="587" from-port="5" to-layer="595" to-port="0"/>
		<edge from-layer="594" from-port="5" to-layer="595" to-port="1"/>
		<edge from-layer="595" from-port="2" to-layer="597" to-port="0"/>
		<edge from-layer="596" from-port="1" to-layer="597" to-port="1"/>
		<edge from-layer="597" from-port="2" to-layer="602" to-port="0"/>
		<edge from-layer="598" from-port="1" to-layer="602" to-port="1"/>
		<edge from-layer="599" from-port="1" to-layer="602" to-port="2"/>
		<edge from-layer="600" from-port="1" to-layer="602" to-port="3"/>
		<edge from-layer="601" from-port="1" to-layer="602" to-port="4"/>
		<edge from-layer="603" from-port="1" to-layer="604" to-port="0"/>
		<edge from-layer="604" from-port="1" to-layer="609" to-port="0"/>
		<edge from-layer="605" from-port="1" to-layer="609" to-port="1"/>
		<edge from-layer="606" from-port="1" to-layer="609" to-port="2"/>
		<edge from-layer="607" from-port="1" to-layer="609" to-port="3"/>
		<edge from-layer="608" from-port="1" to-layer="609" to-port="4"/>
		<edge from-layer="602" from-port="5" to-layer="610" to-port="0"/>
		<edge from-layer="609" from-port="5" to-layer="610" to-port="1"/>
		<edge from-layer="610" from-port="2" to-layer="612" to-port="0"/>
		<edge from-layer="611" from-port="1" to-layer="612" to-port="1"/>
		<edge from-layer="612" from-port="2" to-layer="613" to-port="0"/>
		<edge from-layer="613" from-port="1" to-layer="618" to-port="0"/>
		<edge from-layer="614" from-port="1" to-layer="618" to-port="1"/>
		<edge from-layer="615" from-port="1" to-layer="618" to-port="2"/>
		<edge from-layer="616" from-port="1" to-layer="618" to-port="3"/>
		<edge from-layer="617" from-port="1" to-layer="618" to-port="4"/>
		<edge from-layer="619" from-port="1" to-layer="620" to-port="0"/>
		<edge from-layer="620" from-port="1" to-layer="625" to-port="0"/>
		<edge from-layer="621" from-port="1" to-layer="625" to-port="1"/>
		<edge from-layer="622" from-port="1" to-layer="625" to-port="2"/>
		<edge from-layer="623" from-port="1" to-layer="625" to-port="3"/>
		<edge from-layer="624" from-port="1" to-layer="625" to-port="4"/>
		<edge from-layer="625" from-port="5" to-layer="627" to-port="0"/>
		<edge from-layer="626" from-port="1" to-layer="627" to-port="1"/>
		<edge from-layer="618" from-port="5" to-layer="628" to-port="0"/>
		<edge from-layer="627" from-port="2" to-layer="628" to-port="1"/>
		<edge from-layer="628" from-port="2" to-layer="630" to-port="0"/>
		<edge from-layer="629" from-port="1" to-layer="630" to-port="1"/>
		<edge from-layer="630" from-port="2" to-layer="631" to-port="0"/>
		<edge from-layer="631" from-port="1" to-layer="636" to-port="0"/>
		<edge from-layer="632" from-port="1" to-layer="636" to-port="1"/>
		<edge from-layer="633" from-port="1" to-layer="636" to-port="2"/>
		<edge from-layer="634" from-port="1" to-layer="636" to-port="3"/>
		<edge from-layer="635" from-port="1" to-layer="636" to-port="4"/>
		<edge from-layer="637" from-port="1" to-layer="638" to-port="0"/>
		<edge from-layer="638" from-port="1" to-layer="643" to-port="0"/>
		<edge from-layer="639" from-port="1" to-layer="643" to-port="1"/>
		<edge from-layer="640" from-port="1" to-layer="643" to-port="2"/>
		<edge from-layer="641" from-port="1" to-layer="643" to-port="3"/>
		<edge from-layer="642" from-port="1" to-layer="643" to-port="4"/>
		<edge from-layer="636" from-port="5" to-layer="644" to-port="0"/>
		<edge from-layer="643" from-port="5" to-layer="644" to-port="1"/>
		<edge from-layer="644" from-port="2" to-layer="646" to-port="0"/>
		<edge from-layer="645" from-port="1" to-layer="646" to-port="1"/>
		<edge from-layer="646" from-port="2" to-layer="651" to-port="0"/>
		<edge from-layer="647" from-port="1" to-layer="651" to-port="1"/>
		<edge from-layer="648" from-port="1" to-layer="651" to-port="2"/>
		<edge from-layer="649" from-port="1" to-layer="651" to-port="3"/>
		<edge from-layer="650" from-port="1" to-layer="651" to-port="4"/>
		<edge from-layer="602" from-port="5" to-layer="652" to-port="0"/>
		<edge from-layer="651" from-port="5" to-layer="652" to-port="1"/>
		<edge from-layer="652" from-port="2" to-layer="657" to-port="0"/>
		<edge from-layer="653" from-port="1" to-layer="657" to-port="1"/>
		<edge from-layer="654" from-port="1" to-layer="657" to-port="2"/>
		<edge from-layer="655" from-port="1" to-layer="657" to-port="3"/>
		<edge from-layer="656" from-port="1" to-layer="657" to-port="4"/>
		<edge from-layer="658" from-port="1" to-layer="659" to-port="0"/>
		<edge from-layer="659" from-port="1" to-layer="664" to-port="0"/>
		<edge from-layer="660" from-port="1" to-layer="664" to-port="1"/>
		<edge from-layer="661" from-port="1" to-layer="664" to-port="2"/>
		<edge from-layer="662" from-port="1" to-layer="664" to-port="3"/>
		<edge from-layer="663" from-port="1" to-layer="664" to-port="4"/>
		<edge from-layer="657" from-port="5" to-layer="665" to-port="0"/>
		<edge from-layer="664" from-port="5" to-layer="665" to-port="1"/>
		<edge from-layer="665" from-port="2" to-layer="667" to-port="0"/>
		<edge from-layer="666" from-port="1" to-layer="667" to-port="1"/>
		<edge from-layer="667" from-port="2" to-layer="668" to-port="0"/>
		<edge from-layer="668" from-port="1" to-layer="673" to-port="0"/>
		<edge from-layer="669" from-port="1" to-layer="673" to-port="1"/>
		<edge from-layer="670" from-port="1" to-layer="673" to-port="2"/>
		<edge from-layer="671" from-port="1" to-layer="673" to-port="3"/>
		<edge from-layer="672" from-port="1" to-layer="673" to-port="4"/>
		<edge from-layer="674" from-port="1" to-layer="675" to-port="0"/>
		<edge from-layer="675" from-port="1" to-layer="680" to-port="0"/>
		<edge from-layer="676" from-port="1" to-layer="680" to-port="1"/>
		<edge from-layer="677" from-port="1" to-layer="680" to-port="2"/>
		<edge from-layer="678" from-port="1" to-layer="680" to-port="3"/>
		<edge from-layer="679" from-port="1" to-layer="680" to-port="4"/>
		<edge from-layer="680" from-port="5" to-layer="682" to-port="0"/>
		<edge from-layer="681" from-port="1" to-layer="682" to-port="1"/>
		<edge from-layer="673" from-port="5" to-layer="683" to-port="0"/>
		<edge from-layer="682" from-port="2" to-layer="683" to-port="1"/>
		<edge from-layer="683" from-port="2" to-layer="685" to-port="0"/>
		<edge from-layer="684" from-port="1" to-layer="685" to-port="1"/>
		<edge from-layer="685" from-port="2" to-layer="686" to-port="0"/>
		<edge from-layer="686" from-port="1" to-layer="691" to-port="0"/>
		<edge from-layer="687" from-port="1" to-layer="691" to-port="1"/>
		<edge from-layer="688" from-port="1" to-layer="691" to-port="2"/>
		<edge from-layer="689" from-port="1" to-layer="691" to-port="3"/>
		<edge from-layer="690" from-port="1" to-layer="691" to-port="4"/>
		<edge from-layer="692" from-port="1" to-layer="693" to-port="0"/>
		<edge from-layer="693" from-port="1" to-layer="698" to-port="0"/>
		<edge from-layer="694" from-port="1" to-layer="698" to-port="1"/>
		<edge from-layer="695" from-port="1" to-layer="698" to-port="2"/>
		<edge from-layer="696" from-port="1" to-layer="698" to-port="3"/>
		<edge from-layer="697" from-port="1" to-layer="698" to-port="4"/>
		<edge from-layer="691" from-port="5" to-layer="699" to-port="0"/>
		<edge from-layer="698" from-port="5" to-layer="699" to-port="1"/>
		<edge from-layer="699" from-port="2" to-layer="701" to-port="0"/>
		<edge from-layer="700" from-port="1" to-layer="701" to-port="1"/>
		<edge from-layer="701" from-port="2" to-layer="706" to-port="0"/>
		<edge from-layer="702" from-port="1" to-layer="706" to-port="1"/>
		<edge from-layer="703" from-port="1" to-layer="706" to-port="2"/>
		<edge from-layer="704" from-port="1" to-layer="706" to-port="3"/>
		<edge from-layer="705" from-port="1" to-layer="706" to-port="4"/>
		<edge from-layer="657" from-port="5" to-layer="707" to-port="0"/>
		<edge from-layer="706" from-port="5" to-layer="707" to-port="1"/>
		<edge from-layer="707" from-port="2" to-layer="712" to-port="0"/>
		<edge from-layer="708" from-port="1" to-layer="712" to-port="1"/>
		<edge from-layer="709" from-port="1" to-layer="712" to-port="2"/>
		<edge from-layer="710" from-port="1" to-layer="712" to-port="3"/>
		<edge from-layer="711" from-port="1" to-layer="712" to-port="4"/>
		<edge from-layer="713" from-port="1" to-layer="714" to-port="0"/>
		<edge from-layer="714" from-port="1" to-layer="719" to-port="0"/>
		<edge from-layer="715" from-port="1" to-layer="719" to-port="1"/>
		<edge from-layer="716" from-port="1" to-layer="719" to-port="2"/>
		<edge from-layer="717" from-port="1" to-layer="719" to-port="3"/>
		<edge from-layer="718" from-port="1" to-layer="719" to-port="4"/>
		<edge from-layer="712" from-port="5" to-layer="720" to-port="0"/>
		<edge from-layer="719" from-port="5" to-layer="720" to-port="1"/>
		<edge from-layer="720" from-port="2" to-layer="722" to-port="0"/>
		<edge from-layer="721" from-port="1" to-layer="722" to-port="1"/>
		<edge from-layer="722" from-port="2" to-layer="723" to-port="0"/>
		<edge from-layer="723" from-port="1" to-layer="728" to-port="0"/>
		<edge from-layer="724" from-port="1" to-layer="728" to-port="1"/>
		<edge from-layer="725" from-port="1" to-layer="728" to-port="2"/>
		<edge from-layer="726" from-port="1" to-layer="728" to-port="3"/>
		<edge from-layer="727" from-port="1" to-layer="728" to-port="4"/>
		<edge from-layer="729" from-port="1" to-layer="730" to-port="0"/>
		<edge from-layer="730" from-port="1" to-layer="735" to-port="0"/>
		<edge from-layer="731" from-port="1" to-layer="735" to-port="1"/>
		<edge from-layer="732" from-port="1" to-layer="735" to-port="2"/>
		<edge from-layer="733" from-port="1" to-layer="735" to-port="3"/>
		<edge from-layer="734" from-port="1" to-layer="735" to-port="4"/>
		<edge from-layer="735" from-port="5" to-layer="737" to-port="0"/>
		<edge from-layer="736" from-port="1" to-layer="737" to-port="1"/>
		<edge from-layer="728" from-port="5" to-layer="738" to-port="0"/>
		<edge from-layer="737" from-port="2" to-layer="738" to-port="1"/>
		<edge from-layer="738" from-port="2" to-layer="740" to-port="0"/>
		<edge from-layer="739" from-port="1" to-layer="740" to-port="1"/>
		<edge from-layer="740" from-port="2" to-layer="741" to-port="0"/>
		<edge from-layer="741" from-port="1" to-layer="746" to-port="0"/>
		<edge from-layer="742" from-port="1" to-layer="746" to-port="1"/>
		<edge from-layer="743" from-port="1" to-layer="746" to-port="2"/>
		<edge from-layer="744" from-port="1" to-layer="746" to-port="3"/>
		<edge from-layer="745" from-port="1" to-layer="746" to-port="4"/>
		<edge from-layer="747" from-port="1" to-layer="748" to-port="0"/>
		<edge from-layer="748" from-port="1" to-layer="753" to-port="0"/>
		<edge from-layer="749" from-port="1" to-layer="753" to-port="1"/>
		<edge from-layer="750" from-port="1" to-layer="753" to-port="2"/>
		<edge from-layer="751" from-port="1" to-layer="753" to-port="3"/>
		<edge from-layer="752" from-port="1" to-layer="753" to-port="4"/>
		<edge from-layer="746" from-port="5" to-layer="754" to-port="0"/>
		<edge from-layer="753" from-port="5" to-layer="754" to-port="1"/>
		<edge from-layer="754" from-port="2" to-layer="756" to-port="0"/>
		<edge from-layer="755" from-port="1" to-layer="756" to-port="1"/>
		<edge from-layer="756" from-port="2" to-layer="761" to-port="0"/>
		<edge from-layer="757" from-port="1" to-layer="761" to-port="1"/>
		<edge from-layer="758" from-port="1" to-layer="761" to-port="2"/>
		<edge from-layer="759" from-port="1" to-layer="761" to-port="3"/>
		<edge from-layer="760" from-port="1" to-layer="761" to-port="4"/>
		<edge from-layer="762" from-port="1" to-layer="763" to-port="0"/>
		<edge from-layer="763" from-port="1" to-layer="768" to-port="0"/>
		<edge from-layer="764" from-port="1" to-layer="768" to-port="1"/>
		<edge from-layer="765" from-port="1" to-layer="768" to-port="2"/>
		<edge from-layer="766" from-port="1" to-layer="768" to-port="3"/>
		<edge from-layer="767" from-port="1" to-layer="768" to-port="4"/>
		<edge from-layer="761" from-port="5" to-layer="769" to-port="0"/>
		<edge from-layer="768" from-port="5" to-layer="769" to-port="1"/>
		<edge from-layer="769" from-port="2" to-layer="771" to-port="0"/>
		<edge from-layer="770" from-port="1" to-layer="771" to-port="1"/>
		<edge from-layer="771" from-port="2" to-layer="772" to-port="0"/>
		<edge from-layer="772" from-port="1" to-layer="777" to-port="0"/>
		<edge from-layer="773" from-port="1" to-layer="777" to-port="1"/>
		<edge from-layer="774" from-port="1" to-layer="777" to-port="2"/>
		<edge from-layer="775" from-port="1" to-layer="777" to-port="3"/>
		<edge from-layer="776" from-port="1" to-layer="777" to-port="4"/>
		<edge from-layer="778" from-port="1" to-layer="779" to-port="0"/>
		<edge from-layer="779" from-port="1" to-layer="784" to-port="0"/>
		<edge from-layer="780" from-port="1" to-layer="784" to-port="1"/>
		<edge from-layer="781" from-port="1" to-layer="784" to-port="2"/>
		<edge from-layer="782" from-port="1" to-layer="784" to-port="3"/>
		<edge from-layer="783" from-port="1" to-layer="784" to-port="4"/>
		<edge from-layer="784" from-port="5" to-layer="786" to-port="0"/>
		<edge from-layer="785" from-port="1" to-layer="786" to-port="1"/>
		<edge from-layer="777" from-port="5" to-layer="787" to-port="0"/>
		<edge from-layer="786" from-port="2" to-layer="787" to-port="1"/>
		<edge from-layer="787" from-port="2" to-layer="789" to-port="0"/>
		<edge from-layer="788" from-port="1" to-layer="789" to-port="1"/>
		<edge from-layer="789" from-port="2" to-layer="790" to-port="0"/>
		<edge from-layer="790" from-port="1" to-layer="795" to-port="0"/>
		<edge from-layer="791" from-port="1" to-layer="795" to-port="1"/>
		<edge from-layer="792" from-port="1" to-layer="795" to-port="2"/>
		<edge from-layer="793" from-port="1" to-layer="795" to-port="3"/>
		<edge from-layer="794" from-port="1" to-layer="795" to-port="4"/>
		<edge from-layer="796" from-port="1" to-layer="797" to-port="0"/>
		<edge from-layer="797" from-port="1" to-layer="802" to-port="0"/>
		<edge from-layer="798" from-port="1" to-layer="802" to-port="1"/>
		<edge from-layer="799" from-port="1" to-layer="802" to-port="2"/>
		<edge from-layer="800" from-port="1" to-layer="802" to-port="3"/>
		<edge from-layer="801" from-port="1" to-layer="802" to-port="4"/>
		<edge from-layer="795" from-port="5" to-layer="803" to-port="0"/>
		<edge from-layer="802" from-port="5" to-layer="803" to-port="1"/>
		<edge from-layer="803" from-port="2" to-layer="805" to-port="0"/>
		<edge from-layer="804" from-port="1" to-layer="805" to-port="1"/>
		<edge from-layer="805" from-port="2" to-layer="810" to-port="0"/>
		<edge from-layer="806" from-port="1" to-layer="810" to-port="1"/>
		<edge from-layer="807" from-port="1" to-layer="810" to-port="2"/>
		<edge from-layer="808" from-port="1" to-layer="810" to-port="3"/>
		<edge from-layer="809" from-port="1" to-layer="810" to-port="4"/>
		<edge from-layer="761" from-port="5" to-layer="811" to-port="0"/>
		<edge from-layer="810" from-port="5" to-layer="811" to-port="1"/>
		<edge from-layer="811" from-port="2" to-layer="816" to-port="0"/>
		<edge from-layer="812" from-port="1" to-layer="816" to-port="1"/>
		<edge from-layer="813" from-port="1" to-layer="816" to-port="2"/>
		<edge from-layer="814" from-port="1" to-layer="816" to-port="3"/>
		<edge from-layer="815" from-port="1" to-layer="816" to-port="4"/>
		<edge from-layer="817" from-port="1" to-layer="818" to-port="0"/>
		<edge from-layer="818" from-port="1" to-layer="823" to-port="0"/>
		<edge from-layer="819" from-port="1" to-layer="823" to-port="1"/>
		<edge from-layer="820" from-port="1" to-layer="823" to-port="2"/>
		<edge from-layer="821" from-port="1" to-layer="823" to-port="3"/>
		<edge from-layer="822" from-port="1" to-layer="823" to-port="4"/>
		<edge from-layer="816" from-port="5" to-layer="824" to-port="0"/>
		<edge from-layer="823" from-port="5" to-layer="824" to-port="1"/>
		<edge from-layer="824" from-port="2" to-layer="826" to-port="0"/>
		<edge from-layer="825" from-port="1" to-layer="826" to-port="1"/>
		<edge from-layer="826" from-port="2" to-layer="827" to-port="0"/>
		<edge from-layer="827" from-port="1" to-layer="832" to-port="0"/>
		<edge from-layer="828" from-port="1" to-layer="832" to-port="1"/>
		<edge from-layer="829" from-port="1" to-layer="832" to-port="2"/>
		<edge from-layer="830" from-port="1" to-layer="832" to-port="3"/>
		<edge from-layer="831" from-port="1" to-layer="832" to-port="4"/>
		<edge from-layer="833" from-port="1" to-layer="834" to-port="0"/>
		<edge from-layer="834" from-port="1" to-layer="839" to-port="0"/>
		<edge from-layer="835" from-port="1" to-layer="839" to-port="1"/>
		<edge from-layer="836" from-port="1" to-layer="839" to-port="2"/>
		<edge from-layer="837" from-port="1" to-layer="839" to-port="3"/>
		<edge from-layer="838" from-port="1" to-layer="839" to-port="4"/>
		<edge from-layer="839" from-port="5" to-layer="841" to-port="0"/>
		<edge from-layer="840" from-port="1" to-layer="841" to-port="1"/>
		<edge from-layer="832" from-port="5" to-layer="842" to-port="0"/>
		<edge from-layer="841" from-port="2" to-layer="842" to-port="1"/>
		<edge from-layer="842" from-port="2" to-layer="844" to-port="0"/>
		<edge from-layer="843" from-port="1" to-layer="844" to-port="1"/>
		<edge from-layer="844" from-port="2" to-layer="845" to-port="0"/>
		<edge from-layer="845" from-port="1" to-layer="850" to-port="0"/>
		<edge from-layer="846" from-port="1" to-layer="850" to-port="1"/>
		<edge from-layer="847" from-port="1" to-layer="850" to-port="2"/>
		<edge from-layer="848" from-port="1" to-layer="850" to-port="3"/>
		<edge from-layer="849" from-port="1" to-layer="850" to-port="4"/>
		<edge from-layer="851" from-port="1" to-layer="852" to-port="0"/>
		<edge from-layer="852" from-port="1" to-layer="857" to-port="0"/>
		<edge from-layer="853" from-port="1" to-layer="857" to-port="1"/>
		<edge from-layer="854" from-port="1" to-layer="857" to-port="2"/>
		<edge from-layer="855" from-port="1" to-layer="857" to-port="3"/>
		<edge from-layer="856" from-port="1" to-layer="857" to-port="4"/>
		<edge from-layer="850" from-port="5" to-layer="858" to-port="0"/>
		<edge from-layer="857" from-port="5" to-layer="858" to-port="1"/>
		<edge from-layer="858" from-port="2" to-layer="860" to-port="0"/>
		<edge from-layer="859" from-port="1" to-layer="860" to-port="1"/>
		<edge from-layer="860" from-port="2" to-layer="865" to-port="0"/>
		<edge from-layer="861" from-port="1" to-layer="865" to-port="1"/>
		<edge from-layer="862" from-port="1" to-layer="865" to-port="2"/>
		<edge from-layer="863" from-port="1" to-layer="865" to-port="3"/>
		<edge from-layer="864" from-port="1" to-layer="865" to-port="4"/>
		<edge from-layer="816" from-port="5" to-layer="866" to-port="0"/>
		<edge from-layer="865" from-port="5" to-layer="866" to-port="1"/>
		<edge from-layer="866" from-port="2" to-layer="871" to-port="0"/>
		<edge from-layer="867" from-port="1" to-layer="871" to-port="1"/>
		<edge from-layer="868" from-port="1" to-layer="871" to-port="2"/>
		<edge from-layer="869" from-port="1" to-layer="871" to-port="3"/>
		<edge from-layer="870" from-port="1" to-layer="871" to-port="4"/>
		<edge from-layer="872" from-port="1" to-layer="873" to-port="0"/>
		<edge from-layer="873" from-port="1" to-layer="878" to-port="0"/>
		<edge from-layer="874" from-port="1" to-layer="878" to-port="1"/>
		<edge from-layer="875" from-port="1" to-layer="878" to-port="2"/>
		<edge from-layer="876" from-port="1" to-layer="878" to-port="3"/>
		<edge from-layer="877" from-port="1" to-layer="878" to-port="4"/>
		<edge from-layer="871" from-port="5" to-layer="879" to-port="0"/>
		<edge from-layer="878" from-port="5" to-layer="879" to-port="1"/>
		<edge from-layer="879" from-port="2" to-layer="881" to-port="0"/>
		<edge from-layer="880" from-port="1" to-layer="881" to-port="1"/>
		<edge from-layer="881" from-port="2" to-layer="882" to-port="0"/>
		<edge from-layer="882" from-port="1" to-layer="887" to-port="0"/>
		<edge from-layer="883" from-port="1" to-layer="887" to-port="1"/>
		<edge from-layer="884" from-port="1" to-layer="887" to-port="2"/>
		<edge from-layer="885" from-port="1" to-layer="887" to-port="3"/>
		<edge from-layer="886" from-port="1" to-layer="887" to-port="4"/>
		<edge from-layer="888" from-port="1" to-layer="889" to-port="0"/>
		<edge from-layer="889" from-port="1" to-layer="894" to-port="0"/>
		<edge from-layer="890" from-port="1" to-layer="894" to-port="1"/>
		<edge from-layer="891" from-port="1" to-layer="894" to-port="2"/>
		<edge from-layer="892" from-port="1" to-layer="894" to-port="3"/>
		<edge from-layer="893" from-port="1" to-layer="894" to-port="4"/>
		<edge from-layer="894" from-port="5" to-layer="896" to-port="0"/>
		<edge from-layer="895" from-port="1" to-layer="896" to-port="1"/>
		<edge from-layer="887" from-port="5" to-layer="897" to-port="0"/>
		<edge from-layer="896" from-port="2" to-layer="897" to-port="1"/>
		<edge from-layer="897" from-port="2" to-layer="899" to-port="0"/>
		<edge from-layer="898" from-port="1" to-layer="899" to-port="1"/>
		<edge from-layer="899" from-port="2" to-layer="900" to-port="0"/>
		<edge from-layer="900" from-port="1" to-layer="905" to-port="0"/>
		<edge from-layer="901" from-port="1" to-layer="905" to-port="1"/>
		<edge from-layer="902" from-port="1" to-layer="905" to-port="2"/>
		<edge from-layer="903" from-port="1" to-layer="905" to-port="3"/>
		<edge from-layer="904" from-port="1" to-layer="905" to-port="4"/>
		<edge from-layer="906" from-port="1" to-layer="907" to-port="0"/>
		<edge from-layer="907" from-port="1" to-layer="912" to-port="0"/>
		<edge from-layer="908" from-port="1" to-layer="912" to-port="1"/>
		<edge from-layer="909" from-port="1" to-layer="912" to-port="2"/>
		<edge from-layer="910" from-port="1" to-layer="912" to-port="3"/>
		<edge from-layer="911" from-port="1" to-layer="912" to-port="4"/>
		<edge from-layer="905" from-port="5" to-layer="913" to-port="0"/>
		<edge from-layer="912" from-port="5" to-layer="913" to-port="1"/>
		<edge from-layer="913" from-port="2" to-layer="915" to-port="0"/>
		<edge from-layer="914" from-port="1" to-layer="915" to-port="1"/>
		<edge from-layer="915" from-port="2" to-layer="920" to-port="0"/>
		<edge from-layer="916" from-port="1" to-layer="920" to-port="1"/>
		<edge from-layer="917" from-port="1" to-layer="920" to-port="2"/>
		<edge from-layer="918" from-port="1" to-layer="920" to-port="3"/>
		<edge from-layer="919" from-port="1" to-layer="920" to-port="4"/>
		<edge from-layer="921" from-port="1" to-layer="922" to-port="0"/>
		<edge from-layer="922" from-port="1" to-layer="927" to-port="0"/>
		<edge from-layer="923" from-port="1" to-layer="927" to-port="1"/>
		<edge from-layer="924" from-port="1" to-layer="927" to-port="2"/>
		<edge from-layer="925" from-port="1" to-layer="927" to-port="3"/>
		<edge from-layer="926" from-port="1" to-layer="927" to-port="4"/>
		<edge from-layer="927" from-port="5" to-layer="929" to-port="0"/>
		<edge from-layer="928" from-port="1" to-layer="929" to-port="1"/>
		<edge from-layer="920" from-port="5" to-layer="930" to-port="0"/>
		<edge from-layer="929" from-port="2" to-layer="930" to-port="1"/>
		<edge from-layer="930" from-port="2" to-layer="932" to-port="0"/>
		<edge from-layer="931" from-port="1" to-layer="932" to-port="1"/>
		<edge from-layer="932" from-port="2" to-layer="933" to-port="0"/>
		<edge from-layer="933" from-port="1" to-layer="938" to-port="0"/>
		<edge from-layer="934" from-port="1" to-layer="938" to-port="1"/>
		<edge from-layer="935" from-port="1" to-layer="938" to-port="2"/>
		<edge from-layer="936" from-port="1" to-layer="938" to-port="3"/>
		<edge from-layer="937" from-port="1" to-layer="938" to-port="4"/>
		<edge from-layer="939" from-port="1" to-layer="940" to-port="0"/>
		<edge from-layer="940" from-port="1" to-layer="945" to-port="0"/>
		<edge from-layer="941" from-port="1" to-layer="945" to-port="1"/>
		<edge from-layer="942" from-port="1" to-layer="945" to-port="2"/>
		<edge from-layer="943" from-port="1" to-layer="945" to-port="3"/>
		<edge from-layer="944" from-port="1" to-layer="945" to-port="4"/>
		<edge from-layer="938" from-port="5" to-layer="946" to-port="0"/>
		<edge from-layer="945" from-port="5" to-layer="946" to-port="1"/>
		<edge from-layer="946" from-port="2" to-layer="948" to-port="0"/>
		<edge from-layer="947" from-port="1" to-layer="948" to-port="1"/>
		<edge from-layer="948" from-port="2" to-layer="950" to-port="0"/>
		<edge from-layer="949" from-port="1" to-layer="950" to-port="1"/>
		<edge from-layer="950" from-port="2" to-layer="952" to-port="0"/>
		<edge from-layer="951" from-port="1" to-layer="952" to-port="1"/>
		<edge from-layer="953" from-port="1" to-layer="954" to-port="0"/>
		<edge from-layer="954" from-port="1" to-layer="959" to-port="0"/>
		<edge from-layer="955" from-port="1" to-layer="959" to-port="1"/>
		<edge from-layer="956" from-port="1" to-layer="959" to-port="2"/>
		<edge from-layer="957" from-port="1" to-layer="959" to-port="3"/>
		<edge from-layer="958" from-port="1" to-layer="959" to-port="4"/>
		<edge from-layer="959" from-port="5" to-layer="961" to-port="0"/>
		<edge from-layer="960" from-port="1" to-layer="961" to-port="1"/>
		<edge from-layer="920" from-port="5" to-layer="962" to-port="0"/>
		<edge from-layer="961" from-port="2" to-layer="962" to-port="1"/>
		<edge from-layer="962" from-port="2" to-layer="964" to-port="0"/>
		<edge from-layer="963" from-port="1" to-layer="964" to-port="1"/>
		<edge from-layer="964" from-port="2" to-layer="965" to-port="0"/>
		<edge from-layer="965" from-port="1" to-layer="970" to-port="0"/>
		<edge from-layer="966" from-port="1" to-layer="970" to-port="1"/>
		<edge from-layer="967" from-port="1" to-layer="970" to-port="2"/>
		<edge from-layer="968" from-port="1" to-layer="970" to-port="3"/>
		<edge from-layer="969" from-port="1" to-layer="970" to-port="4"/>
		<edge from-layer="971" from-port="1" to-layer="972" to-port="0"/>
		<edge from-layer="972" from-port="1" to-layer="977" to-port="0"/>
		<edge from-layer="973" from-port="1" to-layer="977" to-port="1"/>
		<edge from-layer="974" from-port="1" to-layer="977" to-port="2"/>
		<edge from-layer="975" from-port="1" to-layer="977" to-port="3"/>
		<edge from-layer="976" from-port="1" to-layer="977" to-port="4"/>
		<edge from-layer="970" from-port="5" to-layer="978" to-port="0"/>
		<edge from-layer="977" from-port="5" to-layer="978" to-port="1"/>
		<edge from-layer="978" from-port="2" to-layer="980" to-port="0"/>
		<edge from-layer="979" from-port="1" to-layer="980" to-port="1"/>
		<edge from-layer="980" from-port="2" to-layer="982" to-port="0"/>
		<edge from-layer="981" from-port="1" to-layer="982" to-port="1"/>
		<edge from-layer="982" from-port="2" to-layer="984" to-port="0"/>
		<edge from-layer="983" from-port="1" to-layer="984" to-port="1"/>
		<edge from-layer="984" from-port="2" to-layer="986" to-port="0"/>
		<edge from-layer="985" from-port="1" to-layer="986" to-port="1"/>
		<edge from-layer="986" from-port="2" to-layer="987" to-port="0"/>
		<edge from-layer="987" from-port="1" to-layer="989" to-port="0"/>
		<edge from-layer="988" from-port="1" to-layer="989" to-port="1"/>
		<edge from-layer="915" from-port="2" to-layer="990" to-port="0"/>
		<edge from-layer="990" from-port="1" to-layer="991" to-port="0"/>
		<edge from-layer="991" from-port="1" to-layer="995" to-port="0"/>
		<edge from-layer="992" from-port="1" to-layer="995" to-port="1"/>
		<edge from-layer="993" from-port="1" to-layer="995" to-port="2"/>
		<edge from-layer="994" from-port="1" to-layer="995" to-port="3"/>
		<edge from-layer="995" from-port="4" to-layer="996" to-port="0"/>
		<edge from-layer="13" from-port="2" to-layer="997" to-port="0"/>
		<edge from-layer="997" from-port="1" to-layer="998" to-port="0"/>
		<edge from-layer="998" from-port="1" to-layer="1002" to-port="0"/>
		<edge from-layer="999" from-port="1" to-layer="1002" to-port="1"/>
		<edge from-layer="1000" from-port="1" to-layer="1002" to-port="2"/>
		<edge from-layer="1001" from-port="1" to-layer="1002" to-port="3"/>
		<edge from-layer="1002" from-port="4" to-layer="1003" to-port="0"/>
		<edge from-layer="996" from-port="1" to-layer="1004" to-port="0"/>
		<edge from-layer="1003" from-port="1" to-layer="1004" to-port="1"/>
		<edge from-layer="1004" from-port="2" to-layer="1006" to-port="0"/>
		<edge from-layer="1005" from-port="1" to-layer="1006" to-port="1"/>
		<edge from-layer="952" from-port="2" to-layer="1007" to-port="0"/>
		<edge from-layer="989" from-port="2" to-layer="1007" to-port="1"/>
		<edge from-layer="1006" from-port="2" to-layer="1007" to-port="2"/>
		<edge from-layer="1007" from-port="3" to-layer="1008" to-port="0"/>
	</edges>
	<meta_data>
		<MO_version value="unknown version"/>
		<cli_parameters>
			<blobs_as_inputs value="True"/>
			<caffe_parser_path value="DIR"/>
			<data_type value="FP16"/>
			<disable_nhwc_to_nchw value="False"/>
			<disable_omitting_optional value="False"/>
			<disable_resnet_optimization value="False"/>
			<disable_weights_compression value="False"/>
			<enable_concat_optimization value="False"/>
			<enable_flattening_nested_params value="False"/>
			<enable_ssd_gluoncv value="False"/>
			<extensions value="DIR"/>
			<framework value="onnx"/>
			<freeze_placeholder_with_value value="{}"/>
			<generate_deprecated_IR_V2 value="False"/>
			<generate_deprecated_IR_V7 value="False"/>
			<generate_experimental_IR_V10 value="True"/>
			<input value="input.1"/>
			<input_model value="DIR/mobilenetv2_fd_single_head.onnx"/>
			<input_model_is_text value="False"/>
			<input_shape value="[1,3,300,300]"/>
			<k value="DIR/CustomLayersMapping.xml"/>
			<keep_quantize_ops_in_IR value="True"/>
			<keep_shape_ops value="True"/>
			<legacy_mxnet_model value="False"/>
			<log_level value="ERROR"/>
			<mean_scale_values value="{'input.1': {'mean': None, 'scale': array([255.])}}"/>
			<mean_values value="()"/>
			<model_name value="face-detection-retail-0005"/>
			<move_to_preprocess value="False"/>
			<output_dir value="DIR"/>
			<placeholder_data_types value="{}"/>
			<placeholder_shapes value="{'input.1': array([  1,   3, 300, 300])}"/>
			<progress value="False"/>
			<remove_memory value="False"/>
			<remove_output_softmax value="False"/>
			<reverse_input_channels value="True"/>
			<save_params_from_nd value="False"/>
			<scale_values value="input.1[255.0]"/>
			<silent value="False"/>
			<stream_output value="False"/>
			<unset unset_cli_parameters="batch, counts, disable_fusing, disable_gfusing, finegrain_fusing, input_checkpoint, input_meta_graph, input_proto, input_symbol, mean_file, mean_file_offsets, nd_prefix_name, output, pretrained_model_name, saved_model_dir, saved_model_tags, scale, tensorboard_logdir, tensorflow_custom_layer_libraries, tensorflow_custom_operations_config_update, tensorflow_object_detection_api_pipeline_config, tensorflow_use_custom_operations_config, transformations_config"/>
		</cli_parameters>
	</meta_data>
	<quantization_parameters>
		<config>{
		'compression': {
			'algorithms': [
				{
					'name': 'DefaultQuantization',
					'params': {
						'preset': 'performance',
						'stat_subset_size': 300
					}
				}
			],
			'target_device': 'CPU'
		},
		'engine': {
			'models': [
				{
					'name': 'face-detection-retail-0005',
					'launchers': [
						{
							'framework': 'dlsdk',
							'tags': [
								'FP32'
							],
							'model': 'PATH',
							'weights': 'PATH',
							'adapter': 'ssd',
							'device': 'CPU'
						}
					],
					'datasets': [
						{
							'name': 'wider',
							'data_source': 'PATH',
							'annotation_conversion': {
								'converter': 'wider',
								'annotation_file': 'PATH'
							},
							'annotation': 'wider.pickle',
							'dataset_meta': 'wider.json',
							'preprocessing': [
								{
									'type': 'resize',
									'size': 300
								}
							],
							'postprocessing': [
								{
									'type': 'resize_prediction_boxes'
								},
								{
									'type': 'cast_to_int'
								},
								{
									'type': 'clip_boxes',
									'size': 1024,
									'apply_to': 'annotation'
								},
								{
									'type': 'filter',
									'apply_to': 'annotation',
									'height_range': '64, 1024',
									'is_empty': true
								}
							],
							'metrics': [
								{
									'type': 'map',
									'ignore_difficult': true,
									'include_boundaries': false,
									'allow_multiple_matches_per_ignored': true,
									'distinct_conf': false
								}
							]
						}
					]
				},
				{
					'name': 'face-detection-retail-0005',
					'launchers': [
						{
							'framework': 'dlsdk',
							'tags': [
								'FP16'
							],
							'model': 'PATH',
							'weights': 'PATH',
							'adapter': 'ssd',
							'device': 'CPU'
						}
					],
					'datasets': [
						{
							'name': 'wider',
							'data_source': 'PATH',
							'annotation_conversion': {
								'converter': 'wider',
								'annotation_file': 'PATH'
							},
							'annotation': 'wider.pickle',
							'dataset_meta': 'wider.json',
							'preprocessing': [
								{
									'type': 'resize',
									'size': 300
								}
							],
							'postprocessing': [
								{
									'type': 'resize_prediction_boxes'
								},
								{
									'type': 'cast_to_int'
								},
								{
									'type': 'clip_boxes',
									'size': 1024,
									'apply_to': 'annotation'
								},
								{
									'type': 'filter',
									'apply_to': 'annotation',
									'height_range': '64, 1024',
									'is_empty': true
								}
							],
							'metrics': [
								{
									'type': 'map',
									'ignore_difficult': true,
									'include_boundaries': false,
									'allow_multiple_matches_per_ignored': true,
									'distinct_conf': false
								}
							]
						}
					]
				},
				{
					'name': 'face-detection-retail-0005',
					'launchers': [
						{
							'framework': 'dlsdk',
							'tags': [
								'FP16-INT8'
							],
							'model': 'PATH',
							'weights': 'PATH',
							'adapter': 'ssd',
							'device': 'CPU'
						}
					],
					'datasets': [
						{
							'name': 'wider',
							'data_source': 'PATH',
							'annotation_conversion': {
								'converter': 'wider',
								'annotation_file': 'PATH'
							},
							'annotation': 'wider.pickle',
							'dataset_meta': 'wider.json',
							'preprocessing': [
								{
									'type': 'resize',
									'size': 300
								}
							],
							'postprocessing': [
								{
									'type': 'resize_prediction_boxes'
								},
								{
									'type': 'cast_to_int'
								},
								{
									'type': 'clip_boxes',
									'size': 1024,
									'apply_to': 'annotation'
								},
								{
									'type': 'filter',
									'apply_to': 'annotation',
									'height_range': '64, 1024',
									'is_empty': true
								}
							],
							'metrics': [
								{
									'type': 'map',
									'ignore_difficult': true,
									'include_boundaries': false,
									'allow_multiple_matches_per_ignored': true,
									'distinct_conf': false
								}
							]
						}
					]
				}
			],
			'global_definitions': '../dataset_definitions.yml',
			'stat_requests_number': null,
			'eval_requests_number': null,
			'type': 'accuracy_checker'
		}
	}</config>
		<version value="1.0"/>
		<cli_params value="{'evaluate': False, 'output_dir': 'PATH', 'direct_dump': True, 'log_level': 'INFO', 'pbar': False, 'keep_uncompressed_weights': False}"/>
	</quantization_parameters>
</net>
